TF_lite Model/tomato_quantizedmodel.tflite (tflite, 200832 bytes, 16 tensors)

sequential_2/dense_1/MatMul f4 [10, 64]
000000 a5 3a 5f be 1d 8d 95 3c b0 d6 6c bd 15 91 da 3c
       -0.21799715 0.018255765 -0.05782193 0.026680509
000010 69 e6 82 be 80 66 fa bd 9a c6 b4 bd 92 bd 28 3e
       -0.25566414 -0.122265816 -0.08826943 0.16478565
000020 c2 76 80 be c5 1c 80 3d 1f 8a 07 be 4e b2 a4 be
       -0.25090605 0.06255487 -0.13236283 -0.32167286
000030 dc fb 53 be 19 a2 f7 bd 7a 7b a8 3e c9 88 5d 3e
       -0.20701545 -0.120914645 0.32906705 0.2163421
000040 c7 ae 8a 3b 38 32 2a 3c f6 2f f2 bd d8 65 38 3d
       0.004232261 0.01038795 -0.11825554 0.045019
000050 b2 59 46 3d 4b 6a 7e 3d 1b 9d 2a be cd c1 7e be
       0.048425384 0.062113088 -0.16661493 -0.24878617
000060 67 f7 8d 3e 3a b1 a3 3e b9 3d 8b be 0b 3a 03 be
       0.27727816 0.3197115 -0.27195528 -0.1281511
000070 29 3c bf 3d fc b8 85 3e 51 11 77 3e 0c 3a 0f bb
       0.093376465 0.26117694 0.241277 -0.0021854667
000080 d0 57 e0 3e c4 d3 9b 3e d7 d8 03 3d 2e a1 b5 bd
       0.43816996 0.30435002 0.032189216 -0.08868633
000090 a6 af 2d bd 25 ba 23 bd 8f ae 94 3c 96 ec 4f 3d
       -0.04240384 -0.039972443 0.018149642 0.050762735
0000a0 e2 d2 17 be cf b4 a3 be 3d 97 14 3e 23 ac 96 be
       -0.14826539 -0.31973884 0.14510818 -0.29428205
0000b0 45 9d 2a be 41 38 6c be ea de e7 bd 05 c8 1b be
       -0.16661556 -0.23068334 -0.11321814 -0.1521302
0000c0 5a 59 2f bc bb 26 0a bd 68 09 a9 bc ee aa b2 be
       -0.010702455 -0.033728343 -0.020634368 -0.34896034
0000d0 01 38 64 bd 69 fa 68 3d e5 16 b0 3e 8c 2f e6 3d
       -0.055717472 0.056879435 0.34392467 0.112395376
0000e0 c3 d1 b3 be e9 27 79 bd 37 a1 fa be af aa 8e bb
       -0.35120973 -0.060829077 -0.48951122 -0.004353843
0000f0 12 9c 90 3d 44 dc fa bc 26 c4 99 be fd c4 67 3e
       0.07061018 -0.030622609 -0.30032462 0.22633739
000100 29 8a 46 3e f6 81 bf 3e 68 d7 31 bb c7 42 27 3e
       0.19388641 0.3740384 -0.0027136449 0.16334067
000110 a9 63 bf bd c3 67 53 be 76 4c 37 bd f5 b9 38 3e
       -0.093451805 -0.2064505 -0.044750653 0.18039687
000120 c9 ba cc bd f5 0c b9 bd 1c 76 84 be a8 33 47 be
       -0.09996564 -0.090356745 -0.2587136 -0.19453299
000130 c4 b1 c6 bd 30 b0 88 be ed 76 44 3e 15 48 28 3e
       -0.09701875 -0.2669692 0.19185992 0.16433747
000140 98 21 c0 bd 96 d1 31 be 87 1d e5 3d 2b e6 87 bd
       -0.093814075 -0.17365107 0.111872725 -0.06635698
000150 71 45 11 3e d1 a0 61 be 24 a2 86 3e b4 9f f3 3d
       0.14186646 -0.22034003 0.26295578 0.11895695
000160 2d bf 03 3e 7c ef 39 be 24 83 df 3c 03 74 cb bd
       0.12865897 -0.18157762 0.027284212 -0.09934237
000170 dc f0 4f 3e 4f ab 0c be 0c 05 3b be c7 a3 21 be
       0.20306724 -0.13737224 -0.18263644 -0.15785132
000180 63 02 0e 3e 0d 62 71 3e 90 18 51 3d 28 e1 a5 bc
       0.13868098 0.2357256 0.051048815 -0.020248964
000190 55 ea 87 bd 8f bc 86 bd fd 19 d0 3d 48 11 1f 3e
       -0.06636492 -0.065789334 0.10161207 0.15533936
0001a0 5d 97 ae bd 8c d8 6c 3e 19 a4 06 3e 15 0a 2e be
       -0.08524964 0.23129481 0.13148536 -0.16996033
0001b0 40 40 f4 bc f0 9d 2c be fd 0a 8b bd fc 09 ed bd
       -0.029815793 -0.16857123 -0.06789205 -0.1157417
0001c0 a2 eb 52 3b db 81 8b bd 05 71 4c 3e ec d2 80 3e
       0.0032183905 -0.06811877 0.19964989 0.2516092
0001d0 e8 dd 0e 3e 8c 2c 56 be 8a 4f 4e be 16 04 5c 3e
       0.13951838 -0.20915431 -0.20147529 0.21485934
0001e0 10 5f ae be 56 e7 3b bd cc 88 b5 ba 37 ef 77 3e
       -0.34056902 -0.045874916 -0.0013849973 0.24212347
0001f0 53 ab 6e be f1 0d d5 3e 06 eb 17 3e 2a f6 52 bc
       -0.23307543 0.416122 0.14835748 -0.012876073
000200 8f 55 91 bd f5 b7 36 be be 0b 92 be fb fc 93 3c
       -0.07096397 -0.17843612 -0.28524584 0.018064966
000210 d5 26 61 be 5a f2 a8 3c c7 41 20 3c 0b 28 7b be
       -0.2198747 0.020623375 0.009781308 -0.24526994
000220 77 c8 a5 3d e2 44 7a be d5 06 61 be 04 0c 81 3e
       0.08094876 -0.24440339 -0.21975262 0.2520448
000230 85 09 56 3d c9 12 e9 3d b6 14 d9 3d a1 06 82 3d
       0.052255172 0.11380536 0.105996534 0.063489206
000240 25 01 00 3e c3 98 d7 bd 42 03 2b be b6 a4 ab ba
       0.12500437 -0.10527184 -0.16700462 -0.0013095352
000250 87 ab 6a bd 3f 49 00 bd d2 8d 04 be cd 23 ac be
       -0.057292487 -0.031319853 -0.12944725 -0.33621064
000260 76 82 6f 3e 4f 16 00 3e 50 e7 0e 3e 4e 9a 52 3d
       0.2338961 0.1250851 0.13955426 0.051416688
000270 4f db 1f 3d 58 54 6a 3e 72 37 b8 bd f1 6e 7d be
       0.03902751 0.22883737 -0.0899495 -0.24749352
000280 3a 00 b4 3b 81 51 93 3e 2b 7c e8 bd 1e d9 74 be
       0.005493191 0.2877312 -0.11351808 -0.23910949
000290 6a 24 31 bd df 30 79 be 45 fe bc be 03 71 4c be
       -0.043247618 -0.24335049 -0.36912742 -0.19964986
0002a0 d0 5b f8 bc 63 a6 94 3d 2e 54 67 be 05 66 5e 3e
       -0.030317217 0.07258298 -0.22590706 0.21718605
0002b0 bf de 01 3e ad 61 dd 3d be 10 f5 3d c2 b1 d4 3d
       0.12682627 0.10809646 0.11966084 0.10385467
0002c0 b5 f3 78 be a5 20 4a bd 5e c2 33 bd 1b f9 72 be
       -0.24311717 -0.04934754 -0.043886535 -0.23727839
0002d0 e9 00 5a 3d 59 09 66 bd 2f 15 08 3e 70 6d 1b be
       0.053223524 -0.05616126 0.13289331 -0.15178466
0002e0 41 1d a0 3e 50 11 a8 be 52 4b 79 3e 48 7d f2 3d
       0.3127232 -0.32825708 0.24345139 0.11840302
0002f0 83 96 b5 3d 33 f6 07 bd 3e c4 b1 3d c7 7a cf 3d
       0.088665985 -0.03319378 0.08680008 0.1013084
000300 ed 6f 2f 3d 3c 30 92 be 09 99 0e 3e d5 89 4b be
       0.04283135 -0.28552425 0.13925566 -0.19876797
000310 2e 08 1d 3e 90 3c 72 bd fc 21 1d be a7 2b 0e be
       0.15335152 -0.05913979 -0.15344995 -0.1388384
000320 a5 da c0 3d 4e 4d 27 3e 72 83 78 be 7e b0 ba 3e
       0.09416703 0.16338083 -0.24268892 0.36462778
000330 c4 de 7e 3e 79 7a cb bd 45 44 80 bc b9 83 21 3e
       0.24889666 -0.09935469 -0.015657553 0.15772904
000340 59 b2 3b be 27 33 dc bd df e1 90 be ec 25 9d 3e
       -0.18329753 -0.10751944 -0.28297326 0.30692995
000350 61 c8 95 be 4c 02 fc bc d3 86 01 bd e5 0e 51 3c
       -0.2925444 -0.030762814 -0.03162272 0.012759899
000360 b4 f2 b2 bd 5a 70 75 be 2d 39 04 3e 82 ca f2 3c
       -0.08737698 -0.2396864 0.12912436 0.029637579
000370 69 44 3a bc c1 cc 8a be 70 a4 a7 3e 1f 14 a4 bd
       -0.011368849 -0.2710934 0.32742643 -0.0801165
000380 b4 80 03 be a5 d3 86 bd 80 9c 1f 3e 0c 33 18 3e
       -0.12842065 -0.06583337 0.15587044 0.14863223
000390 49 b8 de bd eb be 86 be c3 1a 9f be 0c 11 70 3e
       -0.10874993 -0.26317534 -0.31075105 0.23444003
0003a0 da f7 93 be 2e 2d 03 be 92 89 39 3e 69 58 81 be
       -0.28900033 -0.12810203 0.18118885 -0.25262764
0003b0 a6 49 53 be fb e0 4d 3d 26 81 95 3e e0 7b 65 bd
       -0.20633563 0.050263386 0.29200095 -0.05602634
0003c0 7e 8d 23 be cc fc ef bd 29 db c1 bc 89 cc 94 bd
       -0.15971944 -0.11718139 -0.023664074 -0.072655745
0003d0 59 e5 1a be a8 9f 27 3d 52 3c 17 be e0 bb 71 3e
       -0.15126552 0.040923744 -0.14769104 0.23606825
0003e0 3f 29 38 be 3e 42 45 be 07 74 93 3e 3d 61 07 bd
       -0.17984484 -0.1926355 0.2879946 -0.033051718
0003f0 77 1d 0a 3e d7 dc 2c 3d 8b aa 47 3e f7 13 9c 3b
       0.13487802 0.042202797 0.1949865 0.004763122

sequential_2/dense/BiasAdd/ReadVariableOp f4 [64]
000000 0e a3 6f bc ac ac a5 3b 40 f1 70 3d c2 70 90 3e
       -0.014626278 0.0050559845 0.058823824 0.28211027
000010 61 5b 89 bd 79 00 6c bd a5 71 88 3c 80 5c da bc
       -0.06706882 -0.05761764 0.016655752 -0.026655436
000020 91 22 86 bd 68 27 0e 3a 30 8d 4d bc 3d fd 42 be
       -0.06549562 0.0005422742 -0.012545869 -0.19041915
000030 5b c2 8f 3d d0 b7 ed bd 91 52 ee 3d 47 da 82 3e
       0.07019492 -0.11607325 0.11636842 0.25557157
000040 42 90 51 bd d3 8c 00 bd 83 a1 95 3e c2 8a a5 bc
       -0.051162966 -0.0313843 0.29224786 -0.020207766
000050 4b a0 88 bc a4 97 90 bd c8 a8 5c bd 17 16 d6 3d
       -0.016677996 -0.07060173 -0.0538719 0.10453432
000060 c2 83 fa 3d b1 ea 4c 3d 1d 53 95 3d ff da 92 bd
       0.12232162 0.050028507 0.07291243 -0.071706764
000070 8e 4e 0d 3d 7a c3 66 3d af 99 ba 3d 6f 7f 78 bd
       0.034498744 0.056338765 0.09111344 -0.060668405
000080 66 01 53 3e 23 3f 18 3e a0 7f 17 be 15 8c 2d 3c
       0.20606002 0.14867835 -0.14794779 0.01059248
000090 a7 67 55 be 3e 9a c4 bc ed 5d f5 bd 68 f3 46 be
       -0.20840321 -0.02399933 -0.119808055 -0.1942879
0000a0 d1 14 02 3d df f3 de bd 79 26 5d bd 7d b3 8c 3d
       0.031758133 -0.108863585 -0.05399177 0.06870172
0000b0 81 7b 8d be 19 84 d7 bd 94 07 7b be c3 44 1e bd
       -0.27633289 -0.105232425 -0.2451461 -0.038639795
0000c0 bb 0e 52 bc 7c 03 a6 bd 11 fb 0c ba b7 d7 f4 bb
       -0.012820895 -0.08106133 -0.0005377988 -0.0074720043
0000d0 8d f6 d1 bc 9e ee 47 3e da 7f 84 3e 65 7c 7b bc
       -0.02563026 0.19524619 0.25878793 -0.015349482
0000e0 a0 5c 51 3e 8c 71 63 bc fe 16 1c bc 49 c3 c5 bd
       0.2044549 -0.013882052 -0.009526966 -0.09656388
0000f0 bb 9e 8d 3e b6 14 e5 bc ee 81 e5 3d ba 61 e3 bd
       0.27660164 -0.027963977 0.11206423 -0.11102624

sequential_2/dense_1/BiasAdd/ReadVariableOp f4 [10]
000000 23 33 12 3e 98 37 91 3d a2 e2 d2 3d 12 d8 30 3d
       0.1427732 0.07090682 0.10297133 0.04317481
000010 b9 87 9c be 37 57 8c 3d f6 2c 18 be 66 ef 22 3e
       -0.30572298 0.068525724 -0.14860901 0.15911636
000020 71 e9 dd bd 4d 38 84 bc
       -0.10835541 -0.016140128

sequential_2/conv2d/Relu;sequential_2/conv2d/BiasAdd;sequential_2/conv2d/Conv2D;sequential_2/conv2d/BiasAdd/ReadVariableOp f4 [32, 3, 3, 3]
000000 d5 3d 04 ba 3a 4f 16 39 27 14 64 39 ae 6d 0f ba
       -0.0005044614 0.00014334629 0.00021751282 -0.00054713606
000010 a9 90 8c b9 d6 9c 80 b9 39 68 9c b8 a3 a8 e4 b9
       -0.0002681066 -0.00024530914 -7.458073e-05 -0.00043613193
000020 7c d3 f2 b9 e9 88 be 38 c3 11 ef b9 20 f2 cc b9
       -0.00046315405 9.0854075e-05 -0.00045598866 -0.0003909031
000030 16 06 da b9 df 38 ec 39 76 52 8b b8 79 5d 35 b9
       -0.00041584735 0.000450558 -6.643396e-05 -0.00017296326
000040 12 89 20 b8 ad ed ca 39 ad ce 4e b9 cc ac f7 b9
       -3.827463e-05 0.00038705525 -0.00019722684 -0.00047240255
000050 91 87 a1 39 8c 73 a9 b9 e4 0b 98 b9 18 8c 8e b9
       0.00030809318 -0.0003232028 -0.00029000558 -0.0002718873
000060 94 79 c0 b9 9a d8 7d b9 43 24 c7 b9 a6 b0 9c b7
       -0.00036711677 -0.0002420865 -0.00037983255 -1.8678908e-05
000070 cd c6 20 3a be 98 06 ba 52 d6 0a 3a 65 1f 07 3a
       0.0006133139 -0.00051344547 0.00052962184 0.00051545195
000080 b2 aa f8 b7 1e 4c 61 b9 a8 4f bd b9 45 19 2e 39
       -2.964339e-05 -0.00021486028 -0.00036108238 0.00016603347
000090 3e 7d ff 39 6f b4 b6 b9 3c b9 88 39 c6 92 5d 39
       0.00048730703 -0.0003484818 0.00026077952 0.0002113088
0000a0 8a 8f 8b 39 90 34 f4 b9 fd ce 2b b9 92 51 e4 b8
       0.0002661909 -0.0004657847 -0.0001638494 -0.00010887081
0000b0 62 93 c7 b9 36 b1 16 3a 6b 9f 15 39 2a f3 bd b9
       -0.00038066047 0.00057484524 0.00014269135 -0.0003623006
0000c0 57 40 89 39 5b 9e 16 3a 41 10 4e ba f7 30 0c b7
       0.00026178613 0.00057456427 -0.00078606984 -8.356051e-06
0000d0 fc 77 74 39 f2 ca 40 ba 32 b1 1e 3a ad f5 e1 39
       0.00023314351 -0.000735446 0.0006053626 0.00043098387
0000e0 df cf 5c 39 61 1e 60 b9 8d 9c ac b8 0b cd df 38
       0.00021058273 -0.00021373622 -8.230759e-05 0.00010671661
0000f0 27 ac 0d 39 c0 9c bd b9 d1 ea 82 b9 2e 8c e7 39
       0.0001351094 -0.00036165677 -0.00024970484 0.00044164195
000100 f0 dc 8c 39 f7 0c 44 ba 09 1b 33 39 28 e2 2a b9
       0.00026867492 -0.00074787386 0.00017080842 -0.00016296713
000110 73 61 bb 39 e5 78 04 3a 6b bb 83 b9 c5 e2 16 ba
       0.00035740025 0.0005053415 -0.00025125904 -0.0005755837
000120 b1 77 dd 38 33 d2 23 ba 23 ce cc b8 03 ef a8 39
       0.000105603955 -0.00062492787 -9.765874e-05 0.00032221535
000130 5e cd c9 37 ca 7b 89 b8 36 f7 83 39 ea 74 35 ba
       2.4056699e-05 -6.5557266e-05 0.00025170454 -0.00069220236
000140 c9 4b 37 ba 53 3e 72 b9 c3 35 97 b9 49 e6 d7 b8
       -0.0006992189 -0.00023102136 -0.0002884102 -0.00010294893
000150 26 0b 10 39 f5 f9 32 ba 48 27 c9 b9 45 40 83 b7
       0.00013737063 -0.00068274076 -0.00038366974 -1.5646345e-05
000160 48 c7 30 b9 4a aa 2e 3a a2 4d 25 ba 5f 91 ae b8
       -0.00016858906 0.0006662948 -0.00063058187 -8.324044e-05
000170 38 be 06 ba 2c 0f 29 ba c8 2b 3b b9 06 9f ae 38
       -0.0005140039 -0.0006449099 -0.0001785002 8.326587e-05
000180 9b 7e 28 39 af a5 97 b9 8a ea f7 b8 9a ed bc b9
       0.00016068893 -0.00028924408 -0.00011821564 -0.0003603518
000190 58 21 83 b9 3f 75 21 ba 95 3c 31 39 14 cb 6b b9
       -0.0002501111 -0.00061591336 0.00016902604 -0.00022486999
0001a0 f0 82 18 ba 72 87 82 39 15 6f 32 39 af e6 23 3a
       -0.0005817851 0.00024896447 0.00017016784 0.0006252331
0001b0 cb b8 05 b9 0c 72 1b ba 45 a6 b8 39 02 7a b8 39
       -0.00012752709 -0.0005929775 0.00035219095 0.00035186118
0001c0 b8 88 59 b9 72 41 b5 b9 47 6b 09 3a 27 a8 75 b8
       -0.00020745664 -0.0003457177 0.0005242121 -5.8569156e-05
0001d0 27 79 d7 b9 19 94 25 3a a4 85 fe b9 be 42 86 39
       -0.0004109826 0.0006316319 -0.00048546225 0.00025608198
0001e0 dd bf ea b9 10 71 39 ba df 51 6b 38 a4 20 c2 39
       -0.00044774907 -0.00070740376 5.6104614e-05 0.00037026883
0001f0 10 a4 d9 39 aa db ab 38 b4 48 1f b9 3c 92 a2 b9
       0.000415117 8.194831e-05 -0.00015190506 -0.00031008
000200 91 9b b4 39 3a 8b 2e 3a 28 fe 88 39 14 51 0e 39
       0.0003444818 0.00066583196 0.00026129303 0.00013572379
000210 4d 4d 9e 39 2f 34 6d b9 49 32 bf b9 57 b5 38 3a
       0.00030193702 -0.00022621521 -0.00036467824 0.0007046065
000220 70 88 20 b9 68 b0 8e b8 77 f7 f5 39 cc 82 90 39
       -0.00015309616 -6.803946e-05 0.00046914417 0.00027563272
000230 1a c5 9e b8 f6 2f 43 3a f9 11 18 ba 9d bb 53 b9
       -7.57074e-05 0.00074458064 -0.0005801018 -0.0002019242
000240 04 54 a4 39 c0 bf 1c ba 36 1d 0d ba 8a f6 c3 38
       0.00031343114 -0.0005979501 -0.0005383076 9.344246e-05
000250 b9 4c 04 ba 6f 11 cf b8 85 04 18 3a 3d bc 96 b9
       -0.0005046833 -9.8737764e-05 0.00057990133 -0.00028750478
000260 47 b6 6d 37 75 2f 86 b9 bb c6 b6 39 d9 63 0c b9
       1.4168741e-05 -0.0002559383 0.0003486181 -0.00013388637
000270 e2 7e 39 39 cc a5 fe b9 5f 71 ac b9 90 fe 12 3a
       0.00017690242 -0.00048570184 -0.00032890865 0.0005607391
000280 f6 ac ac 39 93 b4 2d ba f9 0e aa b9 f6 09 f5 b9
       0.00032935262 -0.0006626334 -0.00032436082 -0.00046737463
000290 2d d9 0b ba 1e 31 cc 39 8f a4 81 39 3d bc be b8
       -0.0005334791 0.00038946507 0.00024727403 -9.094968e-05
0002a0 f2 ec 75 38 16 58 96 b9 37 0c c4 b9 50 f3 01 39
       5.8633224e-05 -0.0002867586 -0.00037393134 0.0001239304
0002b0 8a 20 fc 38 8c 88 23 3a 20 9d 95 39 f7 1f 81 b9
       0.00012022357 0.00062383036 0.00028536562 -0.00024628613
0002c0 e9 bb c6 36 34 c7 90 b9 38 b6 94 b9 4b fb 8f 39
       5.9227355e-06 -0.00027614238 -0.00028364523 0.00027462313
0002d0 d1 ab a8 39 f3 6a 08 ba d4 ab f7 b9 05 8f 26 3a
       0.0003217147 -0.0005203925 -0.00047239533 0.0006353709
0002e0 a0 be 84 b9 9d 05 cb 39 4e 02 2b 3a 3d 21 13 ba
       -0.0002531903 0.0003872336 0.0006523476 -0.0005612558
0002f0 cb a1 fb 39 7b 89 b4 b9 68 b6 4f 38 c7 b4 1b 3a
       0.00047994996 -0.00034434706 4.9522525e-05 0.00059397187
000300 03 f4 2d 39 e3 cd f8 b9 be 1e 28 3a 63 dc 2a b9
       0.00016589467 -0.00047455644 0.00064132723 -0.00016294564
000310 59 73 65 b9 e5 8b c7 b9 d2 c5 ae 38 7d 5e 29 b9
       -0.00021882112 -0.00038060467 8.3338135e-05 -0.00016152296
000320 6a 42 03 3a 1a 97 da 39 7f 2d 38 ba d3 73 ce b7
       0.000500715 0.0004169278 -0.00070258224 -2.4611049e-05
000330 d2 02 b4 39 88 8e 58 b8 62 eb 28 39 09 ff 8d b9
       0.00034334377 -5.1631156e-05 0.00016109415 -0.00027083632
000340 9c 90 5e b8 f0 2b 4d 39 ff 68 0e ba 29 ec fa b9
       -5.3063603e-05 0.00019566691 -0.0005432516 -0.0004785967
000350 68 d0 12 39 24 b5 ae 38 1e 6e b8 38 f1 55 3f 3a
       0.00014001282 8.3307066e-05 8.7943146e-05 0.0007298878
000360 c0 b1 d9 38 01 11 ad b9 8e 0c 99 b7 ff 5d ee b9
       0.00010380475 -0.000330098 -1.8244868e-05 -0.0004546493
000370 19 c4 c0 b9 93 59 00 39 be b1 24 b9 e3 65 97 b9
       -0.00036767198 0.000122404 -0.00015706473 -0.00028876876
000380 61 37 48 3a 50 4c cf 39 6a 95 22 ba a8 45 ee b7
       0.00076376466 0.00039538974 -0.0006202074 -2.8404247e-05
000390 a6 be d9 b9 0f 64 1d b9 d4 5a ab 39 17 c8 10 3a
       -0.0004153151 -0.00015009961 0.00032683334 0.000552298
0003a0 9d 7d d2 38 87 6a 8f 39 5a 1c bf b9 e5 d2 e5 b8
       0.000100369776 0.00027354455 -0.00036451482 -0.00010958853
0003b0 c0 53 02 39 ad c7 05 ba ad 02 18 b9 1c c8 b2 b9
       0.00012428965 -0.00051033014 -0.00014496846 -0.000340999
0003c0 a7 fd 02 3a 36 56 f1 39 6f dd 31 3a 4e 63 18 ba
       0.00049969036 0.00046031334 0.00067850103 -0.00058131374
0003d0 80 f9 73 38 2b 79 8f 38 fd 76 3c 39 7d 80 c4 38
       5.816808e-05 6.841341e-05 0.00017973404 9.369941e-05
0003e0 b3 67 5a b8 ed 2e 89 b9 4e 2a 62 38 34 0e 3a 39
       -5.2071828e-05 -0.0002616564 5.3922e-05 0.00017743633
0003f0 a6 7b b5 b9 df 11 3e b9 45 ab f2 39 ad f3 0c b9
       -0.00034615136 -0.0001812647 0.00046285443 -0.00013442217

sequential_2/conv2d/BiasAdd/ReadVariableOp f4 [32]
000000 18 7f 42 bc d1 b6 d6 bc e8 6b 17 bd 21 bd 24 bd
       -0.011871122 -0.02621022 -0.03696814 -0.04021943
000010 e0 86 15 bd b6 3d f0 3c 82 9c aa 3c 26 54 44 bd
       -0.03650558 0.029326301 0.020826582 -0.047931813
000020 f2 a8 25 bd c9 85 85 bd 9f b0 47 3b 45 45 1f 3d
       -0.040444322 -0.06519658 0.0030470265 0.03888442
000030 26 84 ae 3d b7 98 9e bc 5b 35 a8 bd 7f 5e 7f bd
       0.08521299 -0.01935993 -0.08213302 -0.062345978
000040 94 0f aa 3c e0 32 eb bb cd 39 a5 bb 35 96 dc bb
       0.020759381 -0.0071776956 -0.005042291 -0.0067317733
000050 e1 0b 3b bc 74 20 aa bc 56 dc 29 bd d0 2d 0b 3d
       -0.011416406 -0.020767428 -0.041469894 0.033979237
000060 65 ed 09 bd 8a e0 0a 3b 56 fb 3c 3c 69 98 2c bc
       -0.033673663 0.0021190965 0.0115345325 -0.010534384
000070 8f 10 25 bd 2f 82 09 3e 72 7c 08 3c 33 1a 87 bc
       -0.040298995 0.13428567 0.008330451 -0.016491985

sequential_2/conv2d_1/BiasAdd/ReadVariableOp f4 [64]
000000 9e 16 16 bd a7 7d 4e bd ac df 1c bd 4d 43 84 39
       -0.036642663 -0.0504128 -0.038299248 0.00025227145
000010 15 2b e6 bc c4 0e 81 3d 3e 9e d6 3a 80 7e 5d bd
       -0.028096715 0.063016444 0.0016374064 -0.054075718
000020 bd 2c f9 bb a7 00 32 bd 58 d5 b7 3c 42 80 e2 bc
       -0.00760421 -0.043457653 0.022440597 -0.027649049
000030 8e df 62 3d f7 df 5c 3b 5a 85 92 bd 1d a4 dc bd
       0.05538898 0.003370283 -0.07154341 -0.107734896
000040 08 51 88 bb b0 2d c3 bd 8f c4 f2 bc a7 74 ef bc
       -0.0041600503 -0.095301986 -0.029634742 -0.029230429
000050 b3 9f 9f bc 4b e9 c2 bc a6 e2 16 bb 66 03 07 bd
       -0.01948533 -0.023792883 -0.0023023277 -0.032962225
000060 7d c9 66 bc 89 22 0d bd 29 97 c1 bc 87 33 0a bd
       -0.0140861245 -0.034456763 -0.02363165 -0.033740547
000070 62 33 84 3b 2b 02 6b bd b7 f8 d4 bb b4 a7 5b bc
       0.0040344456 -0.057375114 -0.0064993757 -0.013406683
000080 2f 9c 80 bd 98 af de bd 31 57 3a bd c9 b8 dd bd
       -0.0627979 -0.108733356 -0.04549331 -0.108262606
000090 00 14 95 bb a5 bc d2 3c bd 6d af bd 40 74 79 bd
       -0.0045495033 0.025724718 -0.08565853 -0.06090188
0000a0 f8 3d 91 3d 89 cd f7 bc 28 a5 25 3e 43 85 ff bc
       0.07091898 -0.030249374 0.16176283 -0.031191474
0000b0 94 85 df bc fe a9 90 bd 7d eb 9a bc 6c c1 81 3d
       -0.027285375 -0.070636734 -0.018911118 0.063357204
0000c0 5c be 3e bd cd d2 f3 3c de 5b df bb e1 ab 91 bc
       -0.04656826 0.029763604 -0.0068163713 -0.017782154
0000d0 93 3b 77 bd fd 35 90 bc 67 b7 60 bc ce cb 90 bc
       -0.06035955 -0.017603869 -0.0137156015 -0.017675307
0000e0 d4 51 eb bd e8 8b aa bc 58 f5 a6 3c 4c b9 3e bc
       -0.11490217 -0.020818666 0.02038066 -0.011640858
0000f0 a7 22 20 bd 7e 4c c7 bd 40 bb 60 bc 8d b8 d3 bc
       -0.039095547 -0.097313866 -0.013716519 -0.025844837

sequential_2/conv2d_2/BiasAdd/ReadVariableOp f4 [64]
000000 6a 02 5c bd 14 50 65 bc f4 31 46 bc 74 d5 18 be
       -0.05371324 -0.013996143 -0.012096871 -0.14925176
000010 21 17 4e bd 4c 2e ba bc 94 20 4e bc b2 de fc bd
       -0.050315026 -0.022727154 -0.012581009 -0.12347163
000020 e3 48 59 bd 2a 49 f7 bc 79 ce 5e bd 64 24 d8 3c
       -0.053048026 -0.030186255 -0.054396126 0.02638454
000030 1c 55 2c 3d 1e 63 29 bd 73 55 a7 bc 8b c2 0b bd
       0.042073354 -0.04135429 -0.020426488 -0.034121078
000040 f9 ae 06 bd 48 99 be bc e9 27 96 bd c3 f9 1b bd
       -0.03288171 -0.02326645 -0.07331831 -0.03807999
000050 6b 67 82 bd 3a 32 61 bd c1 e8 02 3b e7 b5 12 3d
       -0.06367382 -0.05497954 0.0019975158 0.035818007
000060 70 6d 03 bc eb ae a1 bd e6 53 e0 3d a4 3e 43 bd
       -0.008021697 -0.07894691 0.10953502 -0.04766716
000070 c1 bb e0 bb ae e4 aa 3c e4 6b 5f bd 46 69 d2 bc
       -0.0068583195 0.020860996 -0.054546252 -0.025684964
000080 27 e6 15 bc 8a 00 4a 3e e5 0e b2 bd 6d e5 1a 3c
       -0.009149111 0.19726768 -0.08694247 0.009454113
000090 18 c4 95 bc 22 65 fb bc e5 52 de bd 4a 33 61 bd
       -0.018281981 -0.030687872 -0.108556546 -0.054980554
0000a0 19 e5 b2 bc 5e 5a 10 bd 26 86 6f 3b e2 52 7d bc
       -0.021837758 -0.03524243 0.0036548465 -0.015461655
0000b0 73 46 eb bc 68 78 c9 bb a4 7c c7 bd 37 90 8e bd
       -0.028720116 -0.0061483867 -0.0974057 -0.069611005
0000c0 ea 31 cb bd 42 e9 4a be c7 b5 82 bd 8e 70 be bd
       -0.0992163 -0.19815543 -0.063823275 -0.09298812
0000d0 93 3a cf bd 51 64 82 3d 75 94 33 3d 09 76 b2 bc
       -0.10118594 0.0636679 0.04384275 -0.0217848
0000e0 09 9c fe 3c 0c f4 0f bc c0 38 af bc c9 df 00 bd
       0.031080263 -0.008786213 -0.021389365 -0.03146342
0000f0 66 fc 12 bc f4 97 4e bd 8e b0 c5 bb 91 00 2f 3d
       -0.008971309 -0.050437883 -0.00603301 0.04272515

sequential_2/conv2d_3/BiasAdd/ReadVariableOp f4 [64]
000000 d9 e6 15 bd 4b 37 b7 bc 9a 5a 48 bd 8f 60 bb bc
       -0.036597107 -0.022365233 -0.04891453 -0.022873191
000010 3e 18 85 ba 45 7a 1f bd 1b b4 bb 3c 84 c9 70 3d
       -0.001015432 -0.038934965 0.02291303 0.05878593
000020 ac fc fc bd 6e 6b bb bc 3b 8e 7a bd f5 65 74 bc
       -0.12352881 -0.022878375 -0.061170798 -0.014916887
000030 4a 05 13 3e 8e 68 09 bd 8c 9f 33 bc f5 5a 0d bd
       0.14357486 -0.033546977 -0.010963332 -0.03451057
000040 58 a7 4e bc 42 5b b6 3c 69 d7 3d bc f9 8d 18 be
       -0.01261314 0.022260312 -0.011587002 -0.14897908
000050 b8 98 02 3e dc 4e bd bc 3e 2e cb 3d a2 8e c6 bc
       0.1275357 -0.023108892 0.09920929 -0.024237934
000060 39 27 e3 bc 8a 29 d7 bc 8c 25 c3 bc 8e 50 51 bc
       -0.027728664 -0.026264925 -0.023821615 -0.012775553
000070 69 59 a0 bc 0b 31 05 3b 5e 2b 15 bd 06 93 02 bd
       -0.019573884 0.0020323421 -0.03641831 -0.031878494
000080 a3 bc 09 bd 75 de e6 bd 1a 0b 44 bc 93 57 c0 3d
       -0.033627164 -0.11272899 -0.011965537 0.093917035
000090 c6 59 a9 3b c9 d9 79 bc f9 be d7 3c 3a 92 00 bd
       0.0051681725 -0.015249678 0.02633618 -0.031389453
0000a0 9f 9c a3 3d d0 b8 b1 bd be f6 88 bd 3d 8f 72 3c
       0.079888575 -0.08677828 -0.06687687 0.0148046585
0000b0 3d 1e ef 3d 3f f6 3f bc b5 2b ad 3d d6 17 c3 bc
       0.11675689 -0.0117164245 0.08455602 -0.023815077
0000c0 c8 f5 7b 3e 12 bf ce bc d5 09 d8 bc ba e3 7f bd
       0.24605477 -0.025237594 -0.026371876 -0.062473036
0000d0 38 c8 0d bc c7 d6 90 bc fe 69 e4 3d 34 a4 42 3d
       -0.008653693 -0.017680539 0.11153029 0.047519878
0000e0 e7 47 6c bc e1 d8 59 3c f3 ca 0f bd 6f 05 0e ba
       -0.01442144 0.013296337 -0.035105657 -0.000541768
0000f0 7c 45 e4 3d 11 fb 1a 3e a8 f7 b7 bc bc b5 08 3a
       0.111460656 0.15134837 -0.022456959 0.0005215069

sequential_2/conv2d_4/BiasAdd/ReadVariableOp f4 [64]
000000 ed 0a 7b bd 6f da 7f bc 1b 7c 44 be bd b6 04 3e
       -0.061289717 -0.0156160435 -0.19187967 0.12960334
000010 cd 96 ed bd 4a e5 8c bd 6b 64 ce bb d3 99 61 3c
       -0.116010286 -0.06879671 -0.006298592 0.013769585
000020 29 36 87 bd 59 df 2d 3d c9 a7 35 3e ac 57 9c 3c
       -0.06602127 0.04244933 0.17739786 0.019084774
000030 e7 4c 41 bc 87 a9 90 bd 81 69 88 bc fd ef 0a bc
       -0.01179812 -0.07063585 -0.01665187 -0.008480069
000040 1e f3 00 be 83 98 a5 bd 97 8d 24 be d2 90 4e 3e
       -0.12592742 -0.0808573 -0.16069637 0.20172432
000050 04 06 4d bd aa 17 f6 bd ee 13 a1 bd 32 76 e1 39
       -0.050054565 -0.12016232 -0.078651294 0.00043003407
000060 c8 3f 16 3e 3a 0f 6a bd cb 2a 86 bd 7b 64 18 bd
       0.14672768 -0.057143427 -0.06551131 -0.0372052
000070 3c 59 af 3d 8e 3f a9 3d e0 60 3a bd 31 26 14 3e
       0.08561942 0.08264075 -0.045502543 0.14467694
000080 b4 39 40 3d d0 d1 b3 bd a5 73 9b 3d 3e d2 07 bc
       0.04693003 -0.08780253 0.07590417 -0.008289872
000090 c0 9e 7b 3c 9e 92 00 bd ac 1a cf bc 8f 34 f7 bb
       0.015357673 -0.031389825 -0.025281273 -0.0075441073
0000a0 27 3c 4e bd c7 9f 90 bd 1d a4 45 3c d7 e9 60 bd
       -0.050350334 -0.07061725 0.012063053 -0.054910507
0000b0 62 de 3b bc 49 41 cb 3b d8 16 1a bd 16 2f c6 3d
       -0.011466594 0.006202851 -0.03761944 0.0967695
0000c0 e3 91 ec bd 02 2b 78 bc 11 14 0f bd f9 1e 61 bd
       -0.11551263 -0.015146973 -0.034931246 -0.05496118
0000d0 21 f6 21 bd fb c7 8e bd dc aa c5 3c 67 ab 4f 3d
       -0.039541367 -0.06971737 0.024129324 0.05070057
0000e0 a2 ce 25 3d ff 8d c9 bc d7 65 e8 bc 25 b8 3b 3c
       0.040480264 -0.024603842 -0.028368874 0.011457478
0000f0 56 24 03 bd d8 2e d6 3d bb ef 00 bc bb 1f e4 bd
       -0.032017075 0.104581535 -0.007869656 -0.111388646

sequential_2/conv2d_5/BiasAdd/ReadVariableOp f4 [64]
000000 ac 9c da bc ae 4e 9a 3b 21 65 74 bc 10 28 a7 bd
       -0.026686035 0.0047090864 -0.014916689 -0.08161938
000010 a8 0b b7 3d 2a e6 f6 bc 54 e1 ed bc 3b 12 d1 bc
       0.0893777 -0.030139048 -0.029038109 -0.025521388
000020 d6 d7 da bc f0 bb b7 3d 89 b5 3f bc 3e ef 62 bd
       -0.026714247 0.08971393 -0.011700996 -0.05540394
000030 26 0a 2c 3e 49 4a 93 bd f5 e3 4d bd 1a 5f 39 3e
       0.16800746 -0.07191903 -0.050266225 0.18102685
000040 a5 6c 7f bc 44 5b 40 bc d2 46 5f bc d6 6c 24 3c
       -0.015589868 -0.011740509 -0.013627725 0.010035714
000050 7f 65 c6 bd 02 ef 3b bb 7f 7c 2d bd 35 c4 20 bd
       -0.096873276 -0.0028676395 -0.042355057 -0.039249618
000060 25 c1 e6 3d 5f fa 25 3e c2 11 2a 3d a4 9b 2c bc
       0.11267308 0.1620879 0.04152084 -0.0105351545
000070 47 af 06 be 7a 00 c2 3d 7b 5a 92 bd f2 a5 dc 3c
       -0.131528 0.09472747 -0.07146164 0.026934598
000080 fb c6 08 3e bf 14 34 bd 29 97 d4 bc fe 9d d4 bc
       0.13357155 -0.043965098 -0.025950985 -0.025954243
000090 ea 10 13 3e 16 1e 4c 3d 9b 7a bb 3c 52 a7 d5 bd
       0.14361921 0.04983338 0.022885611 -0.104323044
0000a0 56 67 4d be 74 44 2d be cf 6e 11 3c 8a 1c 87 bc
       -0.20058951 -0.16920644 0.0088765165 -0.0164931
0000b0 d8 12 5e bc 83 48 26 be 6f 48 46 bd 88 db 9a 3d
       -0.013554297 -0.16238599 -0.04840892 0.075614035
0000c0 e8 7a 03 bd 86 ca 6b ba db 20 bc 3d 02 6f 14 3d
       -0.032099634 -0.0008994717 0.09185954 0.036238678
0000d0 bd 18 0a bd 0b 07 30 bd ab 7c 59 bd e5 f0 10 3c
       -0.033715 -0.042975467 -0.05309741 0.008846496
0000e0 14 6d 31 3e 03 16 18 bd 0c e3 78 3e ab 8b ab bc
       0.17326766 -0.037130367 0.24305362 -0.020940622
0000f0 5e 2c 1b be b9 90 25 bc 26 2c 1a bd e8 01 51 3d
       -0.15153643 -0.010105305 -0.03763976 0.05102721

sequential_2/conv2d_1/Conv2D i1 [64, 3, 3, 32]
000000 03 ee 10 35 29 22 18 0b 26 03 de df ad f7 04 e7
       3 -18 16 53 41 34 24 11 38 3 -34 -33 -83 -9 4 -25
000010 1c 2d 10 02 d3 16 0e aa dc d3 0b 01 2d e0 f5 0b
       28 45 16 2 -45 22 14 -86 -36 -45 11 1 45 -32 -11 11
000020 eb f6 f3 1e 0f f0 00 00 11 11 f4 8f a9 02 f3 20
       -21 -10 -13 30 15 -16 0 0 17 17 -12 -113 -87 2 -13 32
000030 f2 34 09 1e c3 0e 05 c9 13 ee 2a e2 23 ba e7 27
       -14 52 9 30 -61 14 5 -55 19 -18 42 -30 35 -70 -25 39
000040 0e 1c d8 06 fe df 1b 25 21 fe 01 dc f1 f9 fc 04
       14 28 -40 6 -2 -33 27 37 33 -2 1 -36 -15 -7 -4 4
000050 fa 2e ee fd b9 2d e8 b2 d4 e4 f9 e8 07 a6 05 25
       -6 46 -18 -3 -71 45 -24 -78 -44 -28 -7 -24 7 -90 5 37
000060 f4 ed 1c 15 23 f3 16 11 25 24 fc ea ba ef 10 21
       -12 -19 28 21 35 -13 22 17 37 36 -4 -22 -70 -17 16 33
000070 10 fa 11 e0 e9 0b e9 b5 e3 bd 37 07 0d e6 14 1e
       16 -6 17 -32 -23 11 -23 -75 -29 -67 55 7 13 -26 20 30
000080 03 1d 0b 0c e3 07 1d 1b ef 1e f8 cd d5 20 09 e4
       3 29 11 12 -29 7 29 27 -17 30 -8 -51 -43 32 9 -28
000090 fc 24 d5 10 b9 f7 dc d3 03 e9 42 f6 ee f4 1b 15
       -4 36 -43 16 -71 -9 -36 -45 3 -23 66 -10 -18 -12 27 21
0000a0 08 f0 02 21 ef fa 0b ff f8 e3 fc af 86 23 07 fe
       8 -16 2 33 -17 -6 11 -1 -8 -29 -4 -81 -122 35 7 -2
0000b0 09 1b 15 e3 f4 31 e4 a8 08 c3 39 f6 06 bd ea 22
       9 27 21 -29 -12 49 -28 -88 8 -61 57 -10 6 -67 -22 34
0000c0 ee 13 f0 f7 f6 fa 15 39 02 22 f4 d2 cf f8 13 02
       -18 19 -16 -9 -10 -6 21 57 2 34 -12 -46 -49 -8 19 2
0000d0 fd 2b 1d e5 e4 20 f8 b4 06 f2 45 ef 2c bd 26 10
       -3 43 29 -27 -28 32 -8 -76 6 -14 69 -17 44 -67 38 16
0000e0 df f0 f2 dc 21 f6 22 f8 0b ea f9 ba b3 05 0a f8
       -33 -16 -14 -36 33 -10 34 -8 11 -22 -7 -70 -77 5 10 -8
0000f0 02 2d f6 1a fa 03 12 d3 f0 d5 23 de 15 a7 01 03
       2 45 -10 26 -6 3 18 -45 -16 -43 35 -34 21 -89 1 3

sequential_2/conv2d_2/Conv2D i1 [64, 3, 3, 64]
000000 32 aa e9 1f c5 0a b3 2f 2d e0 1b c7 c3 aa f7 b0
       50 -86 -23 31 -59 10 -77 47 45 -32 27 -57 -61 -86 -9 -80
000010 ac 09 20 32 c9 fc b2 f8 fc 04 0a 43 07 d0 e9 b6
       -84 9 32 50 -55 -4 -78 -8 -4 4 10 67 7 -48 -23 -74
000020 14 e3 f1 eb d6 ef 23 b8 fc 25 a9 48 d3 df e4 a5
       20 -29 -15 -21 -42 -17 35 -72 -4 37 -87 72 -45 -33 -28 -91
000030 1c de 17 b6 4e 35 b8 46 f4 4b 34 fb e8 0c 3a af
       28 -34 23 -74 78 53 -72 70 -12 75 52 -5 -24 12 58 -81
000040 c3 b8 c7 e9 18 b0 c1 d6 b3 ea cc b2 24 9d b6 19
       -61 -72 -57 -23 24 -80 -63 -42 -77 -22 -52 -78 36 -99 -74 25
000050 b0 06 3a f3 33 51 b7 c2 b0 2a 4e c9 e4 46 d9 b3
       -80 6 58 -13 51 81 -73 -62 -80 42 78 -55 -28 70 -39 -77
000060 b2 e2 fd 4b 3c 26 38 c8 fe 45 23 c6 06 fc 07 0d
       -78 -30 -3 75 60 38 56 -56 -2 69 35 -58 6 -4 7 13
000070 c7 c6 c9 dd 3e c4 bc 07 e5 01 1e c7 dd 3a f4 fc
       -57 -58 -55 -35 62 -60 -68 7 -27 1 30 -57 -35 58 -12 -4
000080 13 e6 c5 37 26 be dc d7 11 46 d5 c6 f9 1a d1 c1
       19 -26 -59 55 38 -66 -36 -41 17 70 -43 -58 -7 26 -47 -63
000090 12 e8 c3 4c 0d 47 bc 40 2c 3c 03 07 ed 1c c5 dd
       18 -24 -61 76 13 71 -68 64 44 60 3 7 -19 28 -59 -35
0000a0 ea 3c f0 c6 bf bb 0b 02 90 cd b8 35 35 14 30 08
       -22 60 -16 -58 -65 -69 11 2 -112 -51 -72 53 53 20 48 8
0000b0 f5 b7 f3 cc 22 cd 35 ed bc 36 de 03 b7 f4 d1 d1
       -11 -73 -13 -52 34 -51 53 -19 -68 54 -34 3 -73 -12 -47 -47
0000c0 9f 1c 09 08 d6 f9 ee 01 a9 2a 0c b7 0c a9 f8 18
       -97 28 9 8 -42 -7 -18 1 -87 42 12 -73 12 -87 -8 24
0000d0 fe ac 2f f4 4a 4c 20 3f 06 d7 d4 f3 0a b8 1c 04
       -2 -84 47 -12 74 76 32 63 6 -41 -44 -13 10 -72 28 4
0000e0 4d 16 11 e9 0f b9 0c e2 f8 1b bb 20 c7 15 30 eb
       77 22 17 -23 15 -71 12 -30 -8 27 -69 32 -57 21 48 -21
0000f0 18 d5 25 29 8b fb c3 e6 f1 c6 d3 24 4d 1c 32 b0
       24 -43 37 41 -117 -5 -61 -26 -15 -58 -45 36 77 28 50 -80

sequential_2/conv2d_3/Conv2D i1 [64, 3, 3, 64]
000000 18 af ee 28 06 af ed 01 04 e5 c0 07 a8 bd f8 0d
       24 -81 -18 40 6 -81 -19 1 4 -27 -64 7 -88 -67 -8 13
000010 a7 aa cf cb af c6 03 96 91 fa eb e0 d7 c3 3a 36
       -89 -86 -49 -53 -81 -58 3 -106 -111 -6 -21 -32 -41 -61 58 54
000020 ee 03 ba aa bc da 0a d8 1b 07 b7 f3 d6 e2 d3 cb
       -18 3 -70 -86 -68 -38 10 -40 27 7 -73 -13 -42 -30 -45 -53
000030 f8 e0 e2 f8 d9 ec f6 1b cc 27 17 01 08 c6 1a e2
       -8 -32 -30 -8 -39 -20 -10 27 -52 39 23 1 8 -58 26 -30
000040 c2 b8 a8 00 0c cf d0 01 38 21 d5 c1 17 cb 37 b5
       -62 -72 -88 0 12 -49 -48 1 56 33 -43 -63 23 -53 55 -75
000050 a4 9f 07 05 a2 eb ac a5 e6 d6 e8 e3 f9 bc 28 eb
       -92 -97 7 5 -94 -21 -84 -91 -26 -42 -24 -29 -7 -68 40 -21
000060 30 05 de c5 08 d2 be 00 11 ec 12 36 18 e4 fa ee
       48 5 -34 -59 8 -46 -66 0 17 -20 18 54 24 -28 -6 -18
000070 0f ff fa f3 10 f2 02 18 dc 0e c4 a9 df b8 d7 bd
       15 -1 -6 -13 16 -14 2 24 -36 14 -60 -87 -33 -72 -41 -67
000080 db a2 1e 0e db 1c 00 ff 17 e6 fa c3 df ac 3d c7
       -37 -94 30 14 -37 28 0 -1 23 -26 -6 -61 -33 -84 61 -57
000090 e9 e2 12 14 1d fe cb 0c c6 a0 b1 ea 41 bd 18 ca
       -23 -30 18 20 29 -2 -53 12 -58 -96 -79 -22 65 -67 24 -54
0000a0 c9 db e8 f0 c4 ba 81 b2 38 25 af 1a 23 c1 f8 da
       -55 -37 -24 -16 -60 -70 -127 -78 56 37 -81 26 35 -63 -8 -38
0000b0 26 e1 d1 ec bd 1a 15 de c5 0f 39 ff 3e af e4 1b
       38 -31 -47 -20 -67 26 21 -34 -59 15 57 -1 62 -81 -28 27
0000c0 d8 eb de b2 a4 a7 02 c4 05 da de fe 19 da 3d bf
       -40 -21 -34 -78 -92 -89 2 -60 5 -38 -34 -2 25 -38 61 -65
0000d0 0a e2 af e6 a1 01 be 0c e7 01 cb c2 3a a7 27 22
       10 -30 -81 -26 -95 1 -66 12 -25 1 -53 -62 58 -89 39 34
0000e0 f2 a0 e7 a7 09 15 d7 db f0 3c 1b 34 ea 9d c7 d1
       -14 -96 -25 -89 9 21 -41 -37 -16 60 27 52 -22 -99 -57 -47
0000f0 a6 dd 1b 10 d3 f2 1c 0d 0d d0 1c 01 da 0b ca bd
       -90 -35 27 16 -45 -14 28 13 13 -48 28 1 -38 11 -54 -67

sequential_2/conv2d_4/Conv2D i1 [64, 3, 3, 64]
000000 ed 11 d5 27 cd 05 3a 31 fc ec 1f eb 2e f0 14 ce
       -19 17 -43 39 -51 5 58 49 -4 -20 31 -21 46 -16 20 -50
000010 fa 1a 07 ec 13 d2 ff eb 0e cc d3 ef 19 e5 e6 18
       -6 26 7 -20 19 -46 -1 -21 14 -52 -45 -17 25 -27 -26 24
000020 f5 81 e0 db 4b fd 0c d4 c9 2f e4 46 12 08 17 f0
       -11 -127 -32 -37 75 -3 12 -44 -55 47 -28 70 18 8 23 -16
000030 27 e7 0c dd 12 ea de ed 0a 3a 19 f8 fe ee e9 e5
       39 -25 12 -35 18 -22 -34 -19 10 58 25 -8 -2 -18 -23 -27
000040 14 eb e3 09 a9 16 32 35 1e d8 38 f7 0f fc 0d ff
       20 -21 -29 9 -87 22 50 53 30 -40 56 -9 15 -4 13 -1
000050 03 f4 03 26 af e1 0b d7 e6 f9 9e fa f3 1e 0f 05
       3 -12 3 38 -81 -31 11 -41 -26 -7 -98 -6 -13 30 15 5
000060 a4 9a c8 c5 2b 0d a3 db e8 31 9c 45 08 e8 f3 ea
       -92 -102 -56 -59 43 13 -93 -37 -24 49 -100 69 8 -24 -13 -22
000070 fc 1b 0c df 05 f8 ce c7 f0 36 db 0c d3 ba f8 b7
       -4 27 12 -33 5 -8 -50 -57 -16 54 -37 12 -45 -70 -8 -73
000080 18 dc ef 12 bd 11 3c 1e 13 d6 34 0a 30 03 f6 e0
       24 -36 -17 18 -67 17 60 30 19 -42 52 10 48 3 -10 -32
000090 ef bc 0e 31 bb 05 0b fc 0d 22 ea f5 01 2d 0d fc
       -17 -68 14 49 -69 5 11 -4 13 34 -22 -11 1 45 13 -4
0000a0 db bb d0 da 08 e8 0f 0e e5 15 b9 47 23 fb e8 b0
       -37 -69 -48 -38 8 -24 15 14 -27 21 -71 71 35 -5 -24 -80
0000b0 f1 1b ea d1 f9 e6 fd ee b3 16 eb 04 f8 b3 ec b0
       -15 27 -22 -47 -7 -26 -3 -18 -77 22 -21 4 -8 -77 -20 -80
0000c0 e6 3d f8 17 a4 f6 16 b6 09 db 2e fc 0f ff 00 da
       -26 61 -8 23 -92 -10 22 -74 9 -37 46 -4 15 -1 0 -38
0000d0 07 4b f7 e5 00 f0 ed 1e 0e 0a de 11 f4 ea ef ff
       7 75 -9 -27 0 -16 -19 30 14 10 -34 17 -12 -22 -17 -1
0000e0 19 8e f4 ed f8 f6 fd 09 fc 18 c2 fe f9 ee bd 27
       25 -114 -12 -19 -8 -10 -3 9 -4 24 -62 -2 -7 -18 -67 39
0000f0 07 f7 07 f5 01 1a df 08 16 d8 db c9 28 4f ef 2e
       7 -9 7 -11 1 26 -33 8 22 -40 -37 -55 40 79 -17 46

sequential_2/conv2d_5/Conv2D i1 [64, 3, 3, 64]
000000 ae 0e 39 3f 49 bb f8 b3 b7 30 38 cd 0e 24 fa ec
       -82 14 57 63 73 -69 -8 -77 -73 48 56 -51 14 36 -6 -20
000010 27 fb 05 f6 16 f8 c4 c0 4d 10 0f fc ed df f8 1d
       39 -5 5 -10 22 -8 -60 -64 77 16 15 -4 -19 -33 -8 29
000020 23 ea ce ff d4 ed ed 33 18 12 bd fc 09 03 06 20
       35 -22 -50 -1 -44 -19 -19 51 24 18 -67 -4 9 3 6 32
000030 01 05 2e d2 eb 0e 18 04 1d 16 f5 e7 ea e7 e9 fa
       1 5 46 -46 -21 14 24 4 29 22 -11 -25 -22 -25 -23 -6
000040 b9 e9 f7 17 f7 bf fa a6 e2 12 1d 07 0f 11 1a 01
       -71 -23 -9 23 -9 -65 -6 -90 -30 18 29 7 15 17 26 1
000050 12 fd e3 24 1f f5 f3 33 3b 10 f0 0c 0d 02 15 f5
       18 -3 -29 36 31 -11 -13 51 59 16 -16 12 13 2 21 -11
000060 dc 2a e6 11 fb 05 f6 3a 06 22 e1 ea 21 2e 1a 38
       -36 42 -26 17 -5 5 -10 58 6 34 -31 -22 33 46 26 56
000070 02 14 0d 02 12 12 d5 fc 61 11 f5 ee ec 08 fb 19
       2 20 13 2 18 18 -43 -4 97 17 -11 -18 -20 8 -5 25
000080 fb f5 bc fd 17 c5 48 a1 c6 e7 09 0f ef 15 fc 01
       -5 -11 -68 -3 23 -59 72 -95 -58 -25 9 15 -17 21 -4 1
000090 fe fc b1 09 ea ee ff eb 02 07 0c 0a c4 e7 f3 f1
       -2 -4 -79 9 -22 -18 -1 -21 2 7 12 10 -60 -25 -13 -15
0000a0 bf 2b 13 fc 12 df ee 3d 06 e3 c9 f7 f3 0c 0a 0e
       -65 43 19 -4 18 -33 -18 61 6 -29 -55 -9 -13 12 10 14
0000b0 47 19 0e 37 0d ca 34 e3 eb f9 12 3e d0 dd eb e4
       71 25 14 55 13 -54 52 -29 -21 -7 18 62 -48 -35 -21 -28
0000c0 bb 11 1d f8 43 ca 26 f2 fb 1b ed 18 0b ee f7 ff
       -69 17 29 -8 67 -54 38 -14 -5 27 -19 24 11 -18 -9 -1
0000d0 0a 0f 07 e5 06 07 cb 08 2b ec 1c fe de af 13 e4
       10 15 7 -27 6 7 -53 8 43 -20 28 -2 -34 -81 19 -28
0000e0 11 0c e7 e0 34 26 16 56 0a 2d e1 0d f9 18 0b 12
       17 12 -25 -32 52 38 22 86 10 45 -31 13 -7 24 11 18
0000f0 09 e9 fe 34 11 43 eb b4 33 0b fd 09 3d c3 0b f5
       9 -23 -2 52 17 67 -21 -76 51 11 -3 9 61 -61 11 -11

sequential_2/dense/MatMul i1 [64, 256] scale=0.003747368 zero_point=0
000000 03 ef 11 14 ee 14 e1 07 fb 18 06 f1 f1 1a f9 04
       0.011242104 -0.06370526 0.06370526 0.07494736 -0.067452624 0.07494736 -0.11616841 0.026231576 -0.01873684 0.08993683 0.022484208 -0.05621052 -0.05621052 0.09743157 -0.026231576 0.014989472
000010 1a 0a e6 f4 f5 18 0b 1b 11 f6 0e 1f 11 e8 0c fc
       0.09743157 0.03747368 -0.09743157 -0.044968415 -0.04122105 0.08993683 0.04122105 0.10117894 0.06370526 -0.03747368 0.05246315 0.11616841 0.06370526 -0.08993683 0.044968415 -0.014989472
000020 d7 22 0f fc f6 f1 12 f8 20 19 ee f8 09 03 e7 d4
       -0.15364209 0.12741052 0.05621052 -0.014989472 -0.03747368 -0.05621052 0.067452624 -0.029978944 0.119915776 0.0936842 -0.067452624 -0.029978944 0.033726312 0.011242104 -0.0936842 -0.1648842
000030 14 03 eb df 01 dd 22 e5 04 0b 0e e8 f7 f2 20 dd
       0.07494736 0.011242104 -0.07869473 -0.12366314 0.003747368 -0.13115788 0.12741052 -0.10117894 0.014989472 0.04122105 0.05246315 -0.08993683 -0.033726312 -0.05246315 0.119915776 -0.13115788
000040 d9 d5 dc dd f4 13 fb 17 0e f0 1b 1f f6 f9 e3 da
       -0.14614736 -0.16113682 -0.13490525 -0.13115788 -0.044968415 0.07119999 -0.01873684 0.086189464 0.05246315 -0.059957888 0.10117894 0.11616841 -0.03747368 -0.026231576 -0.10867367 -0.14239998
000050 13 de f1 0c e2 fc f9 fb fc f9 e4 f4 fd 1a fe 05
       0.07119999 -0.12741052 -0.05621052 0.044968415 -0.11242104 -0.014989472 -0.026231576 -0.01873684 -0.014989472 -0.026231576 -0.1049263 -0.044968415 -0.011242104 0.09743157 -0.007494736 0.01873684
000060 03 02 18 07 f1 f3 ef 08 15 ed da 0b 09 d5 e6 d1
       0.011242104 0.007494736 0.08993683 0.026231576 -0.05621052 -0.048715785 -0.06370526 0.029978944 0.07869473 -0.07119999 -0.14239998 0.04122105 0.033726312 -0.16113682 -0.09743157 -0.1761263
000070 f3 e6 d7 ed 13 fd f6 18 ef 03 fb e5 df e1 15 10
       -0.048715785 -0.09743157 -0.15364209 -0.07119999 0.07119999 -0.011242104 -0.03747368 0.08993683 -0.06370526 0.011242104 -0.01873684 -0.10117894 -0.12366314 -0.11616841 0.07869473 0.059957888
000080 ef e2 de f5 ec eb 1a f4 e8 d5 1c e7 e2 f0 f1 e6
       -0.06370526 -0.11242104 -0.12741052 -0.04122105 -0.07494736 -0.07869473 0.09743157 -0.044968415 -0.08993683 -0.16113682 0.1049263 -0.0936842 -0.11242104 -0.059957888 -0.05621052 -0.09743157
000090 02 ff fc dd 04 de db 03 ea e3 e9 ed ce ec 07 17
       0.007494736 -0.003747368 -0.014989472 -0.13115788 0.014989472 -0.12741052 -0.13865262 0.011242104 -0.0824421 -0.10867367 -0.086189464 -0.07119999 -0.1873684 -0.07494736 0.026231576 0.086189464
0000a0 18 eb 18 f8 e4 f0 0d e3 f2 e8 0d e6 0d 1b 17 19
       0.08993683 -0.07869473 0.08993683 -0.029978944 -0.1049263 -0.059957888 0.048715785 -0.10867367 -0.05246315 -0.08993683 0.048715785 -0.09743157 0.048715785 0.10117894 0.086189464 0.0936842
0000b0 f6 14 f9 15 dc f8 e8 f6 f2 f5 f5 fb d9 18 ef 10
       -0.03747368 0.07494736 -0.026231576 0.07869473 -0.13490525 -0.029978944 -0.08993683 -0.03747368 -0.05246315 -0.04122105 -0.04122105 -0.01873684 -0.14614736 0.08993683 -0.06370526 0.059957888
0000c0 17 09 fd f8 07 fe f7 10 05 e5 ed 09 e4 ec 1c 01
       0.086189464 0.033726312 -0.011242104 -0.029978944 0.026231576 -0.007494736 -0.033726312 0.059957888 0.01873684 -0.10117894 -0.07119999 0.033726312 -0.1049263 -0.07494736 0.1049263 0.003747368
0000d0 10 0e dc df cf e4 f4 1a fd 0a fa f6 de 14 e0 eb
       0.059957888 0.05246315 -0.13490525 -0.12366314 -0.18362103 -0.1049263 -0.044968415 0.09743157 -0.011242104 0.03747368 -0.022484208 -0.03747368 -0.12741052 0.07494736 -0.119915776 -0.07869473
0000e0 de 03 01 e9 de 0e f8 17 d9 f1 14 15 0f ea 00 07
       -0.12741052 0.011242104 0.003747368 -0.086189464 -0.12741052 0.05246315 -0.029978944 0.086189464 -0.14614736 -0.05621052 0.07494736 0.07869473 0.05621052 -0.0824421 0.0 0.026231576
0000f0 0f f5 f5 22 12 ea ed 01 0c e0 f4 e5 f6 0c 15 eb
       0.05621052 -0.04122105 -0.04122105 0.12741052 0.067452624 -0.0824421 -0.07119999 0.003747368 0.044968415 -0.119915776 -0.044968415 -0.10117894 -0.03747368 0.044968415 0.07869473 -0.07869473
