TF_lite Model/tomato_quantized.tflite (tflite, 200232 bytes, 16 tensors)

sequential/dense_1/MatMul f4 [10, 64]
00000000: 1e71 033d b1da 8cbe 1fb4 ad3e e122 53be
00000010: 19e8 293e 5c53 743e dd1a 16bd 11f5 213d
00000020: 97e8 c3bc fe60 11be d1b8 163e 11fe 8d3d
00000030: 575c ae3d d397 39be 7ac4 b8be 01f6 4cbe
00000040: e11b 423e 420f 7b3e 7aba 48bd 4f83 733c
00000050: 2517 463e 8711 c6bd a371 843e 78d1 7abe
00000060: d9cb 63be da6d abbb 3f76 4dbe 60a3 14be
00000070: 8c8f 89be 7e01 09be 860c 453d 0127 04be
00000080: 2b40 7fbe f906 d23b 1ab2 dabd b797 0c3e
00000090: aa7e 4cbe f60c 433e 34cf 7f3e 4ed0 843e
000000a0: 1d4d 48bd 1ffa 9dbe 4203 793d 9d2d febd
000000b0: 62e9 43be 5066 a33e 29fb 003e 3085 b1bd
000000c0: 38db 16be d486 10bd c8ca f33d 85c1 e33d
000000d0: bbef b7be 0b61 653e 2039 cb3d 85f9 f8bd
000000e0: 6d97 babd 6b2a 123e 1061 873e 3e20 bdbc
000000f0: fee0 723d ac81 3abd 5286 8d3e d565 603d
00000100: 64f2 88be ba5c 06be 17cf 833d 00fa 903d
00000110: cef8 a63e 5c86 4d3e 76df db3d 058a 2a3d
00000120: 5aa8 45be 131f ffbe d1fc 11be 23a5 5b3e
00000130: 8603 683e 3dc9 40be 96c6 583d f925 f6bd
00000140: 2bcc 31be 50c1 5fbe 87eb 5dbe ead2 85be
00000150: ddfb 303e 53f8 563e 073f 803e d38c 083e
00000160: 63d1 b5be 7b4e 493c c047 8c3d ad5a d03d
00000170: b3bb 273e fefe edbd 84b8 10be bec6 30be
00000180: ca21 4e3e 2d61 48be 63e7 c03c 4989 063e
00000190: 0be8 8cbd fafd f7bd df61 3abe f5f0 40be
000001a0: 02bb 18bd ec99 6ebe df1c 55bd 9dce e8bc
000001b0: b965 8f3c ef92 233e 1036 48be 4002 aebe
000001c0: 8a0c 2e3e 8e37 673d 097d c1bd 6c91 1abe
000001d0: 1622 6abd 54e8 81bb 7543 d2bd ee13 c7bc
000001e0: fc3e 1c3e 418e b33e c661 53be 1065 333d
000001f0: 27ed 603c 72cd 6a3d 47de 12bd 5202 5ebe
00000200: 71ce 393e e308 203e 60ff 8bbe 4a70 aebe
00000210: 9fdf 683e 8c86 80be a885 8d3e b480 b7bd
00000220: d229 5fbe 4950 473e 1a2d 793e ee08 0d3d
00000230: aef1 69be 86d0 83bd 1f43 bfbc 9c04 2b3e
00000240: 83d7 2ebd 85c9 2e3e 9b84 d2bd 61d5 cbbd
00000250: 9040 49be 14d3 3a3c 7f7a 20bd eff3 83bc
00000260: 067b 62be cca6 9cbe b66f 51bd 3af2 9a3e
00000270: 8b56 583e f005 c03e 3fd5 413e 8674 423d
00000280: 2273 1a3e 7793 3f3c effb 5b3e 3251 003d
00000290: bfb8 e33d cae1 1ebe 6ea1 96be 9c91 623e
000002a0: 536f 163e 8686 b0bc 2a6b 9fbd 4fe9 11be
000002b0: a2b8 a03c 24c4 a03c 782c 903e 4ce7 5d3e
000002c0: ed5c 84be 91b8 c33d 5322 3bbe c97b 8ebe
000002d0: 1364 30be abaa 09bd c1c5 92be 3d93 93bd
000002e0: 9be4 7a3d 0713 9c3e 34a0 61be e568 18be
000002f0: a675 583e f425 45be 2dc6 463c b324 4b3e
00000300: 2d7f 1ebe 6431 3abe b9a9 9cbe c0e3 323e
00000310: 0412 39be 1886 b53d f432 fdbd 032d 743e
00000320: 6534 18be 435a 38bd d802 493e 3aa8 183e
00000330: 0cef 3a3e cb08 4d3d 86a8 5d3e 803a eebd
00000340: 1e57 113d 9e65 bd3b b7f0 47be a854 91bd
00000350: 530c a1be be92 89bd 033c 1dbe 0cbc 4dbd
00000360: 68ac 673e 66df a4be 2d7b a73e ef35 5d3e
00000370: 49f8 f33d d8bc 8fbe 9fd9 2fbd d59b 6abe
00000380: 1dca a63e 23ad 763e e4f2 20bc 88c7 93be
00000390: 1c9f 78be 5c3d 3dbe caea 6d3d 1aec 8d3e
000003a0: 88c8 8dbd c7b1 45be 2fd9 4b3e 33bd b43e
000003b0: 9ddd 71bd 98ac 0dbd 20c7 353e 7891 593b
000003c0: 9c8a 46be e13d 33be 8769 3bbe 498c 313e
000003d0: fc48 62be 9e1d 2c3e f256 a2be 121e 963e
000003e0: 191c dbbe 87b0 85bd 2e32 433a e77a 043e
000003f0: c1d5 fd3d 914b 793c e10b c8be 74ca e5bc
0.0320903 -0.27510598 0.33926484 -0.20618774 0.16592444 0.23859924 -0.036646713 0.039540354
-0.023914618 -0.14197156 0.1471894 0.06933225 0.08513706 -0.18124323 -0.360874 -0.20015718
0.18955947 0.24517539 -0.049005963 0.014862849 0.19344766 -0.09671312 0.25867948 -0.24493968
-0.2224573 -0.005231601 -0.20064639 -0.14515448 -0.2686733 -0.13379475 0.048107646 -0.12905504
-0.24926822 0.0064095226 -0.106785014 0.1372975 -0.19970194 0.19047913 0.24981385 0.25940174
-0.048901666 -0.3085489 0.060794123 -0.12411044 -0.19131997 0.31913996 0.1259581 -0.086679816
-0.14732063 -0.035284832 0.11903912 0.11120895 -0.35925087 0.224003 0.09923005 -0.12156967
-0.091109134 0.14273994 0.2644124 -0.023086663 0.0592966 -0.04553382 0.2764154 0.054784615
-0.2674743 -0.1312131 0.06435984 0.07078934 0.32611698 0.20070785 0.10735981 0.041635532
-0.19302502 -0.49828395 -0.14256598 0.21449713 0.22657594 -0.18826766 0.05292376 -0.120189615
-0.1736304 -0.21851087 -0.21671878 -0.26137477 0.17283578 0.20993166 0.25048086 0.1333497
-0.35511312 0.012286778 0.06849623 0.10173545 0.16380195 -0.116209015 -0.14132887 -0.17263314
0.20130077 -0.1956832 0.023547834 0.13138308 -0.06880196 -0.12108989 -0.18201397 -0.18841918
-0.03728772 -0.23300904 -0.052029487 -0.028418833 0.01750456 0.1597402 -0.19551873 -0.33986092
0.16996971 0.056449465 -0.09447677 -0.15094537 -0.057161413 -0.0039644632 -0.10266773 -0.024301495
0.15258402 0.3506947 -0.20642766 0.043797553 0.0137284165 0.057324834 -0.03585651 -0.21680573
0.18145157 0.1562839 -0.27343273 -0.34070045 0.22741555 -0.2510265 0.27641034 -0.08960095
-0.21793297 0.1946422 0.24333611 0.034432344 -0.228461 -0.06436257 -0.023347436 0.16700977
-0.042685997 0.17069061 -0.10279199 -0.09952808 -0.19653535 0.011402864 -0.03917932 -0.016107528
-0.22117242 -0.30596006 -0.051131926 0.3026293 0.21126764 0.3750453 0.18929003 0.047474407
0.15082982 0.011692873 0.21482824 0.031327434 0.11119222 -0.15515819 -0.29420036 0.22125858
0.14690904 -0.02154852 -0.07784112 -0.14249156 0.01961929 0.019624777 0.28158927 0.21670264
-0.25852147 0.095566876 -0.18274812 -0.27828816 -0.17225675 -0.033610027 -0.286665 -0.07205818
0.06125317 0.30483267 -0.22033769 -0.14883764 0.2113863 -0.19252759 0.01213221 0.19838218
-0.15478201 -0.18182904 -0.30598238 0.17469692 -0.18073279 0.08863467 -0.12363234 0.23845296
-0.14863737 -0.045007955 0.19629991 0.14907923 0.18255252 0.050057214 0.21646318 -0.11632252
0.035483472 0.005779936 -0.19525419 -0.07096225 -0.31454715 -0.06717442 -0.15354924 -0.050228164
0.22624362 -0.3220169 0.32711163 0.21602605 0.11912591 -0.28073764 -0.04293215 -0.22911008
0.32576075 0.24089484 -0.009823535 -0.28863168 -0.24279445 -0.18480438 0.05808524 0.27719194
-0.06923014 -0.19306098 0.19907068 0.35300598 -0.059049238 -0.034588426 0.17751741 0.0033198278
-0.19388813 -0.17504074 -0.18301974 0.17338671 -0.22098154 0.16808173 -0.3170696 0.29319817
-0.42794874 -0.065278105 0.0007446137 0.12937509 0.12394286 0.01521577 -0.39071563 -0.028050639

sequential/dense_1/BiasAdd/ReadVariableOp f4 [10]
00000000: a53a 993d 80c5 1e3d 02fc a13d c47d 673d
00000010: 4051 39be a838 1bbd 4308 c73d b5ad 74bc
00000020: cc58 54be eb78 413d
0.07481889 0.03876257 0.07909395 0.056516424 -0.180974 -0.03789583 0.09718373 -0.014933993
-0.20736998 0.047234457

sequential/dense/BiasAdd/ReadVariableOp f4 [64]
00000000: 8a46 63bd d0fb 013d 44b8 323e 0bb7 c23c
00000010: 23d8 d5bd a346 d03d 292f 963d 3241 aebc
00000020: a7d2 1ebd 6021 fc3d d298 2d3d 9d6d 24bc
00000030: a4b2 abbc 7ca1 efbc 23fc 693d fd16 d13c
00000040: 2d3d 4ebd ba9e 05bd 08f9 25bc c2fd 00bd
00000050: e729 a23b 4fce 373d fcba a23b 064b 323e
00000060: 1aac 88bd d01c cb3d 3962 073d 222b f43c
00000070: 3cab 18be f24d 063e a783 873e 57da 9f3c
00000080: fb89 543d dc63 6f3c 0c82 4b3b 06fb ed3d
00000090: c4f6 c3bd 2909 4ebd e443 29bd 607d 7c3d
000000a0: e9b0 6fbc 78d9 65bd 97c8 373e 15c3 28be
000000b0: 7d5f 0ebe 1f5f 323d 9aa2 f43d acac ffbc
000000c0: 3cd7 d5bc 9293 6cbd d19d c4bc ea8f 0d3b
000000d0: d31c 803d 4a84 0c3e f07e cebd 0ef1 293d
000000e0: ba21 34bc 99c7 5e3e 4fcf 81bc 938e c53b
000000f0: 949a dfbc c4e1 afbd b67c db3d 37c5 0bbd
-0.055487193 0.031734288 0.17453104 0.023768922 -0.104416154 0.10169723 0.07333214 -0.021271322
-0.038775112 0.12311053 0.04238207 -0.0100358995 -0.020959206 -0.029251806 0.057125222 0.025523657
-0.05035131 -0.032622077 -0.010130174 -0.031492002 0.004948843 0.044874486 0.004966138 0.17411432
-0.06673451 0.09917605 0.033052657 0.029805724 -0.1490907 0.13115671 0.2646763 0.019513292
0.0518894 0.014611211 0.0031052856 0.116201445 -0.09568551 -0.050301705 -0.04132451 0.061643004
-0.014629581 -0.056115597 0.17947613 -0.16480668 -0.13903613 0.043547746 0.11945076 -0.031210266
-0.026103608 -0.05775792 -0.024001034 0.0021600672 0.06255498 0.1372234 -0.10082805 0.041489653
-0.010994369 0.21755828 -0.015845923 0.006028959 -0.027295388 -0.08587983 0.10717146 -0.034123626

sequential/conv2d/BiasAdd/ReadVariableOp f4 [32]
00000000: 333c 0ebd f02e 00bd 3d17 8bbc 8b55 fe3d
00000010: 8328 03bd 4409 07bd 3062 a9bd c322 bb3d
00000020: d932 9bbd 85e7 c7bd 2369 a0bc 93da b43d
00000030: 6464 d9bc 8d37 323d 6630 b4bc 649d 7ebd
00000040: c402 dd3b d190 bfbc dd0f b0bc 4e70 e73c
00000050: 630d 2b3c a9bf 11bd 366d 5abd cb82 8d3d
00000060: f8a7 f83b 0b6b d13d 6583 28bd 31ff fa3c
00000070: fac5 35bc 4e4a 29bd b395 8b3c 4065 efbc
-0.03472538 -0.031294763 -0.016978854 0.1241866 -0.032021057 -0.03296782 -0.08270681 0.0913749
-0.07578058 -0.09760956 -0.019581383 0.08830752 -0.026537128 0.04351001 -0.021995734 -0.06216182
0.0067447145 -0.023384484 -0.02149194 0.028251793 0.010440203 -0.035583172 -0.053326808 0.069097124
0.007588383 0.10225495 -0.041140933 0.030639263 -0.011094565 -0.041330628 0.017039156 -0.029223084

sequential/conv2d_1/BiasAdd/ReadVariableOp f4 [64]
00000000: c316 01bd f9f5 28bd 2eeb f3bc cdd7 edbc
00000010: a312 c0bd 9140 29bd ba89 2fbd e054 a2bc
00000020: 3d3f a83d aec1 ca3c 77ac 0f3e 123a 6abc
00000030: 39ad c2bc 0aec 3b3d 543f f2bb 2a5d febc
00000040: 72b3 40bd 246d 5dbc 55c1 91bc 8d22 c1bc
00000050: 3e8d 9abd 0275 b4bd 6c25 a53d fc2f c4bc
00000060: 84dd 15bd 2754 8abc 76bf 0bbe f05b c63c
00000070: 2bfc 8fbd 0567 02bd 57a0 aabc 8713 5bbd
00000080: b7bf d8bd 7e2c 06bd 54ad 38be f267 69bc
00000090: 3c4d 83bd 5239 1cbc dbfe 00bd 91a8 35bc
000000a0: 8955 d9bc e7c7 fcbc 99c3 12bd a266 c1bc
000000b0: 219e adbd a5f9 75bd d2be adbc a575 88bd
000000c0: fe09 02be cadf d93b b3c7 adbc e407 69ba
000000d0: f8ed 893c 3112 b0bd 6bd1 b8bd 4f8d 9fbc
000000e0: b184 e9bc e284 75bc 7a4d 4c3b a16f 03bd
000000f0: 99fa d4bc 0ae0 1fbd 778b 7dbd 3214 0f3d
-0.031515848 -0.041250203 -0.029775228 -0.029033566 -0.09378555 -0.04132134 -0.042855956 -0.019815862
0.08215187 0.024750557 0.14030634 -0.014296072 -0.02376424 0.0458794 -0.007392803 -0.031050283
-0.047046132 -0.013514791 -0.017792383 -0.023576045 -0.07546471 -0.0881138 0.08063778 -0.023948662
-0.036588207 -0.01688583 -0.13647255 0.024213761 -0.07030519 -0.03183653 -0.02082841 -0.05348542
-0.10583442 -0.032757275 -0.1803487 -0.014245974 -0.06411216 -0.009535151 -0.03149305 -0.011087553
-0.026530044 -0.03085704 -0.035831068 -0.02360851 -0.08477426 -0.060052533 -0.021209154 -0.06663064
-0.12699124 0.006648992 -0.021213388 -0.00088894204 0.016837105 -0.0859722 -0.09024318 -0.01947656
-0.028505655 -0.014985295 0.003117411 -0.03208888 -0.0259984 -0.03903202 -0.061900582 0.03493137

sequential/conv2d_2/BiasAdd/ReadVariableOp f4 [64]
00000000: 91f7 353d a729 80bd 3e1b 43bd 6312 15bd
00000010: a8b3 cdbc 0376 60bd 9060 5bbd aa1e fabc
00000020: 1e42 4a3c 6697 18be bb52 f9bc a212 a43b
00000030: c213 e7bc 21f3 90bc 30ae 0cbd db30 e0bc
00000040: 0096 b4bc 5b86 87bd b3a2 113d e9e8 5bbd
00000050: dc4c 1ebd b5a9 96bc 5ac8 bcbc 7fe1 55bd
00000060: 75e0 e0bc 5b30 a1bc ad53 b43d c44b a1bd
00000070: fad7 8b3d 328b 89bc fe72 46bd e2db 43be
00000080: edc3 98bd ead3 243c 0012 5dbd b176 77bc
00000090: 130a 10bd 7614 a3bd c27f e4bc b8cb 3abd
000000a0: 8249 73bd 606b c6bd a11d dd3c f53a 77bc
000000b0: 660f 3abd 3b3d 8d3d 3545 f8bc 839b 35bd
000000c0: 7020 10bd 8296 37bd ee5b e7bb 0f8c 65bd
000000d0: 601f 98bc 91ba 2739 cba7 92bd d1aa 71bd
000000e0: 84df c3bc c391 debc 0a50 1fbc d496 203d
000000f0: 4dc8 01bd 3fb2 eebd 123d 0cbd 546a 8ebd
0.04442555 -0.062579446 -0.047633402 -0.036394488 -0.02511008 -0.054800045 -0.053558886 -0.0305322
0.012344865 -0.14901504 -0.030434957 0.005007104 -0.028207663 -0.017694058 -0.034345806 -0.027367046
-0.022044182 -0.06617423 0.035555553 -0.053688917 -0.038647518 -0.01839147 -0.023044754 -0.052217003
-0.02745078 -0.019676378 0.088050224 -0.07875779 0.06828304 -0.016790006 -0.04844951 -0.19126847
-0.07459245 0.01006029 -0.053972244 -0.015103982 -0.035165858 -0.07962887 -0.02789295 -0.045604438
-0.059396274 -0.09688449 0.026991667 -0.01508974 -0.04542484 0.068964444 -0.030306438 -0.04433776
-0.035187185 -0.04482127 -0.0070605194 -0.056041773 -0.018569648 0.00015995862 -0.0716091 -0.059000794
-0.023910291 -0.027169114 -0.009723673 0.03920634 -0.031685162 -0.116550915 -0.03423793 -0.06953874

sequential/conv2d_3/BiasAdd/ReadVariableOp f4 [64]
00000000: 47c3 7c3e c30c 0abd 6a4f 793b 340b ffbd
00000010: 53df 1a3e 7996 debd 082e 3cbe b43b 36be
00000020: 5935 c4bc 73d8 fa3d 55c6 33bd 64a1 0abe
00000030: ff62 84bd 168d 10bd 0b31 e3bd bbd3 8abd
00000040: 6fb3 24be bf32 e3bd 03dc 05be 9ba6 07bd
00000050: 1613 d83c df9d 7c3d 9a83 debc 1d9c 883c
00000060: e93b c6bc 2924 583e dba0 2b3d e4d9 703d
00000070: 2579 62be 5992 463c 91f6 05bd 2f21 373d
00000080: 6f00 b0bb 7aac fd39 13bb a2bc efbf f4bc
00000090: a61f 53bd 6039 de3c 1e56 053e 23e6 92bd
000000a0: 6ff8 a6bd a8f5 2a3d fed0 6c3c c25b 83bd
000000b0: 87ee 1bbd 8841 89be f3c5 c53d ac3c 15bd
000000c0: 2ad3 87bd 66c3 3dbd f642 de3d df03 26bd
000000d0: 0772 d5bc a725 213e beb6 08bd 290b 1bbd
000000e0: 2d8c a9bc d011 2abc 827f 713d 3d5e d23d
000000f0: edee 51bc 2ba4 f2bc 2608 5abd 625d 873d
0.24683867 -0.033703577 0.003804172 -0.12453309 0.15124254 -0.10868544 -0.18376935 -0.17796212
-0.02395122 0.12248316 -0.043890316 -0.13538128 -0.064641945 -0.0352908 -0.110933386 -0.06778666
-0.16084073 -0.110936634 -0.13072209 -0.03311787 0.026376288 0.061673995 -0.027162362 0.016676003
-0.02419849 0.21107544 0.04190145 0.058801547 -0.22116525 0.012119853 -0.032705847 0.04470938
-0.0053711454 0.00048384425 -0.019864595 -0.029876677 -0.051543854 0.027126968 0.13021132 -0.07172801
-0.08152854 0.041738182 0.0144541245 -0.06413986 -0.038069274 -0.2680781 0.096568964 -0.036434814
-0.06632073 -0.046328925 0.108526155 -0.040531036 -0.026055349 0.1573702 -0.0333774 -0.03785244
-0.020696724 -0.010380223 0.05895949 0.10271881 -0.012813312 -0.029619297 -0.053230427 0.06609608

sequential/conv2d_4/BiasAdd/ReadVariableOp f4 [64]
00000000: fdd3 adbc d6e5 cc3a 46c6 4dbd 15f8 bd3c
00000010: d6b8 d6bd bdd9 16bd cc28 4bbd d81a 573e
00000020: bd95 273e 9e63 d13d 615b 80bd 2ea8 a73b
00000030: f28b 84bd 06e9 be3d e7c5 dbbd 67f2 d9bd
00000040: 0d32 abbb 4903 c1bd 7f37 b2bd 5406 af3b
00000050: 5b1e 8bbe 6d94 e23d c3bf 613d e462 5d3e
00000060: 1e78 d7bd 087f 2d3e ebd3 37be 9466 103e
00000070: e777 203e 556a cdbc e685 243c 748b 8ebd
00000080: 9400 8dbc 7646 06bd f614 f7bd 697a 753d
00000090: d2f2 98bd dd75 e63d 42ad 25be c267 963c
000000a0: 3d8c abbc 521e 9cbd 7986 a3bc 963a 5abc
000000b0: c254 c6bd a816 31be bbef c1bc 3f51 9bbc
000000c0: 28f7 c43d 133a 123d 5653 b5bd ab53 83bc
000000d0: 6136 c8bd 2a7c 0dbd d82c 7a3e 1d16 75bc
000000e0: 316e e0bd bd67 803e eddc a6bd 642d 183d
000000f0: 094e 3bbd b853 143e d39f 953d 2098 3abc
-0.021219248 0.0015632461 -0.050237916 0.023189584 -0.104844734 -0.036828745 -0.049599454 0.21006334
0.16365714 0.102240786 -0.06267429 0.005116484 -0.06472005 0.093217894 -0.10731106 -0.10641938
-0.0052244724 -0.09424455 -0.08701991 0.0053413305 -0.27171597 0.11063466 0.05511452 0.21619755
-0.105209574 0.1694299 -0.17951934 0.1410163 0.15670739 -0.025075117 0.0100416895 -0.06960192
-0.01721219 -0.03278204 -0.12064545 0.059931193 -0.07468189 0.112529494 -0.16179374 0.018360022
-0.020940894 -0.07622971 -0.019961582 -0.013319632 -0.09684135 -0.17293799 -0.023673883 -0.01895964
0.09617454 0.035699915 -0.08853786 -0.016031107 -0.09775997 -0.03454224 0.24431169 -0.0149588855
-0.10958517 0.25079146 -0.08147607 0.037152663 -0.045728717 0.14485061 0.07305875 -0.0113888085

sequential/conv2d_5/BiasAdd/ReadVariableOp f4 [64]
00000000: e2c7 27bd 50e9 613e 757d 31bd 552f 6a3e
00000010: cbec dabc b9e7 92bd a5c1 503c 0e62 0abd
00000020: e62c 293e e44b f8bb a045 eb3c 54b7 c43d
00000030: 03f5 17bd d98c e3bc 5e3b 8dbd 0c78 dbbc
00000040: 6552 5bbc efaf 123d e8a2 6bbb 6521 903d
00000050: ca92 e4bc e5df 9dbd 1a29 3ebd 9588 a2bc
00000060: 9dbf aabc 6bb4 edbc 396e e2bd 9bf7 0dbd
00000070: 4ec9 643b b47d 8fbb 15a0 14bd b4fb 653e
00000080: 2d5d fc3d 6bb2 733d a246 d3bd 6ba8 eabd
00000090: fbc9 3b3d 6fcf 1a3e a4f2 bbbd a10f 343e
000000a0: bfde b63d 2b5d 3ebd 5d24 6cbe 7cc9 24bd
000000b0: b05f 7f3d 6f8f 963d 12cf a23d 58bf 67bd
000000c0: f9cb 67be d9ce 6cbc 588a 20bc cbed e23d
000000d0: c7da a3bc 0cf7 89bc 547f 27bc aec5 f2bc
000000e0: 9bf6 42bd c403 abbc 5b38 9c3b 2054 83bd
000000f0: 8675 a5bc 87e0 21bd 15a8 34bc 50e5 e839
-0.040962107 0.22061658 -0.043332536 0.22869618 -0.02672424 -0.07173104 0.012741481 -0.03378492
0.16521034 -0.0075774062 0.028719723 0.096052796 -0.037098896 -0.027777122 -0.06896089 -0.026790641
-0.013386344 0.035812315 -0.0035955254 0.070376195 -0.027902026 -0.0770872 -0.046425916 -0.019840518
-0.020843321 -0.029016694 -0.110561796 -0.034659963 0.0034910026 -0.0043789987 -0.03628548 0.22459298
0.12322459 0.059496325 -0.103162065 -0.114579044 0.04584692 0.15118192 -0.091771394 0.17584087
0.08929204 -0.04647557 -0.23060746 -0.040231213 0.062347114 0.073515765 0.07949652 -0.056578964
-0.22636403 -0.014453613 -0.009798609 0.11080512 -0.020001782 -0.016841434 -0.0102232285 -0.029635277
-0.047598463 -0.020875819 0.0047674603 -0.0641253 -0.020197641 -0.039520767 -0.011026402 0.0004442134

sequential/conv2d/Conv2D f4 [32, 3, 3, 3]
00000000: 71d8 be3d 88f8 fdbd f192 03be 4057 11be
00000010: 0803 c93c ef9e 283d 25b0 d33d 7659 36bd
00000020: bd02 1bbd 3870 6a3d d8d9 b53d f902 e7bd
00000030: 333e 2abe f883 a3bd 533a 623d bbd2 28be
00000040: 6a1a 58bd a06c f5bd 1722 ddbc e171 173d
00000050: 610b f8bd 576f a4bd 8ae3 19be 6985 913c
00000060: dc0a c3bc 3965 d0bd 552b 8d3d 78c2 7e3d
00000070: 48ee 553d b327 54be fbf6 013e 843e c33c
00000080: ffd4 c73c 9504 923d 1ec7 c6bb a5d6 f1bd
00000090: 8c48 2a3e 77de 3b3d 4ea1 283d 26bb 353e
000000a0: ed77 0bbd d224 72bd 694d 043e 89ca 0dbd
000000b0: 262b 05be a4ee 223e ab57 d6bd b3bb bbbd
000000c0: f580 2d3e 59f1 b5bd 0bcb febb 56b7 143e
000000d0: 04c4 16be 3f48 83bd d999 fcbd 553e 0e3e
000000e0: b670 593a a9c2 bdbc ebeb 0f3e 2a4f 29bd
000000f0: e363 08be 9205 033e 68bc ffbd 972a 1ebd
00000100: f991 663d 86b4 50bd 4cf7 25be b9ce a13d
00000110: 63ff c43d 1427 35bc 93f7 283e cb3a 413d
00000120: 9f11 93bd 1762 2a3e 109f 173a 5eba 01be
00000130: a677 0c3e 0d42 c13b 4621 01be ef65 283e
00000140: bace 46bd b1d9 bbbd 5abb 07bd 191f 04be
00000150: a69b a0bd 9a6f 09be be10 45bd 30ee e9bc
00000160: 79f5 92bd 885e a1bd 30cb 92bd 59d7 3dbe
00000170: 0e20 66ba a45f 42bd 7053 0e3d 9e0e 22bd
00000180: 0af5 e0bc 60d4 5cbe 9692 e1bd bfcc 25bd
00000190: 67ff ddba d971 183d dd7e 8bbc 4d3b 0dbe
000001a0: 2324 cdbd c5cb 3f3c 00f1 c9bc 9c63 663c
000001b0: 29ff 36be e4bb 25be 7e96 3b3c 9d33 f4bc
000001c0: d774 de3d b368 edbc 848e 7c3d cc91 c7bb
000001d0: 5d11 b63d f906 babd 7f97 a93c 99de 74bd
000001e0: eff2 043e e21d b23b a5f2 043e c464 e83d
000001f0: 1ab8 a1bc b639 323c 1cf1 313c 4bc1 24be
00000200: 6032 b93c 32a6 88bd f79a 0b3d 0c28 0f3e
00000210: 243e 263d f57b 0cbe 145c 00bd ab63 9f3c
00000220: f6ee b03d b513 293e c20c 4e3d caf9 2abe
00000230: 88c5 353e 61ce 423d c12a fbbd 550b 153e
00000240: 5b14 e4bd ce8f 1cbe d017 413e bc89 24bd
00000250: d534 8cbd e750 853d 7226 38bc 75e2 d83c
00000260: 7977 1abd 58d2 02be 0200 303d 8104 e93d
00000270: a885 973d edcc 18be 60e6 e13c 3aeb 95bd
00000280: 03cb a4bd 027c 22bd 7c8c cf3d 6078 5c3c
00000290: 7561 bfbd 8fe1 2e3e 77cf 75bd 0091 17be
000002a0: 7083 b13c cc1d 013d d050 143a f41c 263d
000002b0: 59b4 28bd 5a6a fb3b cb60 093e c132 753d
000002c0: f4e6 c5bd d72b e43d 66be 243d 5921 a6bc
000002d0: 7691 003e e52c 59bd d5a8 f3bd 71ef 183e
000002e0: 5343 ee3d 6d05 2bbe f1f0 343d 5176 9bbd
000002f0: 23ef c3bd 3474 33be c55e 1b3e 2bd6 c2ba
00000300: d6f0 1fbe d9a2 ad3d 11ab 23be 4a9f b9bd
00000310: e13b 49bd 3cfe 1ebe b6bb 663d 4711 1dbd
00000320: 71b4 b0bd 9219 f9bd 5871 053e ffca d0bd
00000330: 34a9 23be 619a 543c 2354 e9bc dc16 1bbd
00000340: 23cc 17bd 50d9 0abe 4a4f 3a3d 4c49 ce3d
00000350: 33f9 1fbe 240a b4bd 7580 143e 9c2d a7bd
00000360: c714 dc3d c854 7d3d 153d c23b eb33 813d
00000370: 3778 893d c4c9 123d 3410 7cbd 654f 143e
00000380: 01d6 09be 1b15 09be dd03 a03d b42a d1bd
00000390: f64f 24be 456b 503d 70c0 343d c50b c53d
000003a0: d995 6b3c 1e8c 32be 4381 7ebb f45d 81bd
000003b0: ca92 a2bd 5510 bfbd cb68 0d3d ff56 82bd
000003c0: 6bdf a43d 45fe 803d cf2c 4ebe ed18 08bd
000003d0: 42eb aa3c 2ba6 0cbe 38cf 1a3d 704d 203d
000003e0: 9a2a 25bd 6138 90bc 4609 683d ad15 d2bd
000003f0: e1d6 d73d f789 143d 3979 5d3c 1bb2 2dbd
0.09318627 -0.12400919 -0.12849022 -0.1419344 0.024537578 0.041167196 0.10336331 -0.04451891
-0.03784441 0.057235926 0.08879441 -0.11279864 -0.1662529 -0.079841554 0.055231404 -0.16486637
-0.052759565 -0.11983609 -0.026993794 0.036973838 -0.12111545 -0.08029049 -0.15028206 0.01776381
-0.02380889 -0.10175557 0.068930306 0.06219718 0.052229196 -0.20718269 0.12691872 0.02383352
0.024393557 0.0712978 -0.006066217 -0.11808518 0.16629237 0.045866456 0.041169457 0.17747173
-0.034049917 -0.059117146 0.12920155 -0.03461698 -0.13004741 0.15911347 -0.1046594 -0.0916666
0.16943724 -0.08883924 -0.0077756695 0.14523062 -0.14723212 -0.06410264 -0.123340316 0.13890965
0.00082946883 -0.02316411 0.1405484 -0.041335262 -0.13319354 0.12795094 -0.124871075 -0.038614836
0.056291554 -0.05095341 -0.16207618 0.07900757 0.09619024 -0.01105668 0.16500692 0.04717521
-0.07181095 0.16638981 0.0005783895 -0.1266875 0.13717517 0.0058977664 -0.12610349 0.16445135
-0.048536994 -0.09172381 -0.033137657 -0.12902488 -0.078421876 -0.13421479 -0.04811167 -0.02855596
-0.071757264 -0.078793585 -0.07167661 -0.1853918 -0.000877858 -0.04745449 0.03474754 -0.03956472
-0.027460594 -0.2156539 -0.11014287 -0.040478464 -0.0016937078 0.03721795 -0.017028267 -0.13792153
-0.10016658 0.011706297 -0.02465105 0.014061835 -0.17870773 -0.16184956 0.011449454 -0.029809767
0.10862129 -0.028980589 0.06165935 -0.0060903784 0.088900305 -0.09083361 0.020702122 -0.0597826
0.12983297 0.005435691 0.12983187 0.113473445 -0.019741107 0.010878017 0.010860708 -0.1608936
0.022607028 -0.06672324 0.034083333 0.1398012 0.040586606 -0.13719161 -0.031337813 0.019456705
0.08639328 0.16511424 0.050305136 -0.1669685 0.17751133 0.0475601 -0.12264014 0.14555104
-0.11136695 -0.15289232 0.1885674 -0.040170416 -0.068460144 0.065095715 -0.011239635 0.02647517
-0.037711594 -0.12775552 0.042968757 0.11377812 0.0739854 -0.14921923 0.027575672 -0.073202565
-0.08046534 -0.039669044 0.10134217 0.013456434 -0.0934476 0.17078231 -0.060012307 -0.14801407
0.02166912 0.031522557 0.0005657794 0.040554956 -0.041187618 0.00767259 0.1341583 0.059862856
-0.096631914 0.11141174 0.04022064 -0.020279573 0.12555489 -0.05302133 -0.118974365 0.1493509
0.11633935 -0.16701289 0.044175092 -0.075909264 -0.09567096 -0.17524797 0.1517287 -0.0014864852
-0.15619215 0.08478326 -0.15983225 -0.09063585 -0.04912937 -0.1552667 0.05633136 -0.038346555
-0.086281665 -0.1216308 0.13031518 -0.101949684 -0.15982515 0.01297626 -0.028482502 -0.037863597
-0.037059914 -0.1355946 0.045485772 0.10072574 -0.15622406 -0.08790997 0.14502127 -0.08162996
0.107461505 0.06184843 0.0059276917 0.06308731 0.06712382 0.03583695 -0.06153889 0.14483412
-0.13460542 -0.13386957 0.07813237 -0.10213223 -0.16046128 0.05088355 0.044128835 0.096213855
0.014378988 -0.17436263 -0.003883437 -0.06316748 -0.07938154 -0.09329287 0.034523766 -0.063642494
0.08050426 0.06298498 -0.2013428 -0.033226896 0.020864133 -0.13735263 0.037795275 0.03913635
-0.04032383 -0.017605009 0.05664947 -0.102580406 0.10539032 0.036264386 0.013517671 -0.042406183

sequential/conv2d_1/Conv2D i1 [64, 3, 3, 32]
00000000: eeee f83b c9bf fafa b3ca be33 eee0 d4f5
00000010: e1d8 f7d6 ddf5 b813 ed3a fc01 ffe9 27f1
00000020: f3e6 c60d f9fc e30d bee2 a51d 26de c734
00000030: d8ee dbd6 ceda befd c916 da15 e810 2a0e
00000040: e1eb e830 0a3c 2015 e9ef c5fc 2dfa ea2c
00000050: dbf7 fffe faa4 a5fd c23f fff8 f53b 31f2
00000060: 14ba 0b22 e9cb d5f0 d3ea ea17 dbd4 1c4e
00000070: e8fb 12cf bf0d db29 cd4c 3ff9 fae2 faf6
00000080: f7b9 e328 e506 0cfe def2 f31b c9e8 1605
00000090: 1df2 cdde bd06 d128 a636 eee7 020f f50b
000000a0: 1697 e818 efec c010 f8d1 d92c eed7 fb29
000000b0: 00d9 fcfc dc22 cb00 e117 05eb 0eda fbf2
000000c0: 060b 1512 fe07 132e 06f8 c312 12e8 344a
000000d0: eb12 1a03 f5e4 2906 ce28 27ea 2167 1ee3
000000e0: 14c9 0e39 bed3 d300 f7d8 dd12 dfed 382a
000000f0: 1410 1bdc c204 f723 d03e 52ef e202 2cf0
-18 -18 -8 59 -55 -65 -6 -6
-77 -54 -66 51 -18 -32 -44 -11
-31 -40 -9 -42 -35 -11 -72 19
-19 58 -4 1 -1 -23 39 -15
-13 -26 -58 13 -7 -4 -29 13
-66 -30 -91 29 38 -34 -57 52
-40 -18 -37 -42 -50 -38 -66 -3
-55 22 -38 21 -24 16 42 14
-31 -21 -24 48 10 60 32 21
-23 -17 -59 -4 45 -6 -22 44
-37 -9 -1 -2 -6 -92 -91 -3
-62 63 -1 -8 -11 59 49 -14
20 -70 11 34 -23 -53 -43 -16
-45 -22 -22 23 -37 -44 28 78
-24 -5 18 -49 -65 13 -37 41
-51 76 63 -7 -6 -30 -6 -10
-9 -71 -29 40 -27 6 12 -2
-34 -14 -13 27 -55 -24 22 5
29 -14 -51 -34 -67 6 -47 40
-90 54 -18 -25 2 15 -11 11
22 -105 -24 24 -17 -20 -64 16
-8 -47 -39 44 -18 -41 -5 41
0 -39 -4 -4 -36 34 -53 0
-31 23 5 -21 14 -38 -5 -14
6 11 21 18 -2 7 19 46
6 -8 -61 18 18 -24 52 74
-21 18 26 3 -11 -28 41 6
-50 40 39 -22 33 103 30 -29
20 -55 14 57 -66 -45 -45 0
-9 -40 -35 18 -33 -19 56 42
20 16 27 -36 -62 4 -9 35
-48 62 82 -17 -30 2 44 -16

sequential/conv2d_2/Conv2D i1 [64, 3, 3, 64]
00000000: 121a fa17 e0fd f9eb ee1e b106 1722 f019
00000010: 00f5 edfa 0b08 0917 e933 d8e3 1a07 f7d8
00000020: f1d5 f5ea c8f2 0fe6 2bf3 1d0d e8fa 0af2
00000030: e01c edc5 ccfe e408 0212 08d4 e3ec ed05
00000040: e106 e524 c702 f2fb d813 bbf2 faff e10c
00000050: e8e2 0c03 ff19 efe9 1927 dd1e fe22 09f9
00000060: 01d7 f51a f101 08d3 ebfe f60f e120 f8fd
00000070: d4ee f1f3 03e6 cde5 fdfd 01fe 00f4 ded4
00000080: fde2 19fd ec08 1003 ca28 dbf8 1033 d2ef
00000090: ec14 e303 ed20 e11e 0a40 e1fa ec1a 2be6
000000a0: f80c 090f ef07 03fc 0102 eaf0 f913 17f6
000000b0: f826 ead5 f602 05e0 f71b 10dd 16fb dfde
000000c0: 1fca 04fc c7fc 08ec cdfe ba13 f321 fdff
000000d0: ddf1 deef ec1a bd17 ef05 fbef fa0c e4ed
000000e0: e1df cd12 e6ef e60a 23e9 f00a f313 11ff
000000f0: fbeb ed01 daf2 d921 0d0d 1af7 e8cf e4d4
18 26 -6 23 -32 -3 -7 -21
-18 30 -79 6 23 34 -16 25
0 -11 -19 -6 11 8 9 23
-23 51 -40 -29 26 7 -9 -40
-15 -43 -11 -22 -56 -14 15 -26
43 -13 29 13 -24 -6 10 -14
-32 28 -19 -59 -52 -2 -28 8
2 18 8 -44 -29 -20 -19 5
-31 6 -27 36 -57 2 -14 -5
-40 19 -69 -14 -6 -1 -31 12
-24 -30 12 3 -1 25 -17 -23
25 39 -35 30 -2 34 9 -7
1 -41 -11 26 -15 1 8 -45
-21 -2 -10 15 -31 32 -8 -3
-44 -18 -15 -13 3 -26 -51 -27
-3 -3 1 -2 0 -12 -34 -44
-3 -30 25 -3 -20 8 16 3
-54 40 -37 -8 16 51 -46 -17
-20 20 -29 3 -19 32 -31 30
10 64 -31 -6 -20 26 43 -26
-8 12 9 15 -17 7 3 -4
1 2 -22 -16 -7 19 23 -10
-8 38 -22 -43 -10 2 5 -32
-9 27 16 -35 22 -5 -33 -34
31 -54 4 -4 -57 -4 8 -20
-51 -2 -70 19 -13 33 -3 -1
-35 -15 -34 -17 -20 26 -67 23
-17 5 -5 -17 -6 12 -28 -19
-31 -33 -51 18 -26 -17 -26 10
35 -23 -16 10 -13 19 17 -1
-5 -21 -19 1 -38 -14 -39 33
13 13 26 -9 -24 -49 -28 -44

sequential/conv2d_3/Conv2D i1 [64, 3, 3, 64]
00000000: 0ace d8fd e5ef f41c d4c3 f418 92f2 13e4
00000010: 1201 ff18 ecf6 1bff 0fe9 100a 2af5 ebb9
00000020: e32d e01a 01ed edef 11fc fd02 f01a e1f0
00000030: fdd7 241a 10c7 1eee f917 c8f8 26df 06f2
00000040: 14d3 b00f e91c 0e08 16f9 f000 b406 faea
00000050: 16c3 f4f0 0ee5 f41f f21c 1d43 2ae7 f281
00000060: fe00 d4eb 06da 06d7 41ef 070b e01c fd15
00000070: 1700 39f7 08cd 34fd 11ef d1fd 2707 fe23
00000080: 0fc6 c202 0503 fe02 f9c2 f50d bdf3 16e9
00000090: 1ecf 24f7 d9e1 001a 12f7 0938 2e04 38cc
000000a0: de03 e31a 1a13 0ef6 57eb 0afa e1f4 fae5
000000b0: fee7 09c4 09f0 4009 f9eb 1202 f607 2023
000000c0: 06b5 aff6 fbf0 04f0 c487 f0a5 d6fa 20ea
000000d0: 01e1 f824 04fc ecfb 0f11 0ce0 1312 19ba
000000e0: 1515 9b0d 03e1 f4fb dfe4 d7fc f629 ea18
000000f0: 1cde 2c3d f1e1 bfad fdfd e2e4 fc11 050c
10 -50 -40 -3 -27 -17 -12 28
-44 -61 -12 24 -110 -14 19 -28
18 1 -1 24 -20 -10 27 -1
15 -23 16 10 42 -11 -21 -71
-29 45 -32 26 1 -19 -19 -17
17 -4 -3 2 -16 26 -31 -16
-3 -41 36 26 16 -57 30 -18
-7 23 -56 -8 38 -33 6 -14
20 -45 -80 15 -23 28 14 8
22 -7 -16 0 -76 6 -6 -22
22 -61 -12 -16 14 -27 -12 31
-14 28 29 67 42 -25 -14 -127
-2 0 -44 -21 6 -38 6 -41
65 -17 7 11 -32 28 -3 21
23 0 57 -9 8 -51 52 -3
17 -17 -47 -3 39 7 -2 35
15 -58 -62 2 5 3 -2 2
-7 -62 -11 13 -67 -13 22 -23
30 -49 36 -9 -39 -31 0 26
18 -9 9 56 46 4 56 -52
-34 3 -29 26 26 19 14 -10
87 -21 10 -6 -31 -12 -6 -27
-2 -25 9 -60 9 -16 64 9
-7 -21 18 2 -10 7 32 35
6 -75 -81 -10 -5 -16 4 -16
-60 -121 -16 -91 -42 -6 32 -22
1 -31 -8 36 4 -4 -20 -5
15 17 12 -32 19 18 25 -70
21 21 -101 13 3 -31 -12 -5
-33 -28 -41 -4 -10 41 -22 24
28 -34 44 61 -15 -31 -65 -83
-3 -3 -30 -28 -4 17 5 12

sequential/conv2d_4/Conv2D i1 [64, 3, 3, 64]
00000000: 13cd 1225 b302 bb23 dba5 e7f1 d0f2 9832
00000010: aa14 2189 d3ff 3de3 af01 c2e5 390c 23cd
00000020: 15c8 4d3b ff95 37ce deba 062e 06a9 aaf3
00000030: 26ca 3c29 2bda 06a7 f408 eb13 d6c6 caa8
00000040: eb1b 9829 ec16 1fee 15ce 2627 ecd4 8df4
00000050: 010f 2ee7 c41f 2e18 cd26 ecab e2e9 2fab
00000060: 2edf 4ba6 aaa3 c204 411c c32e d5c5 d5eb
00000070: 0f42 c32c 440f 34d2 3d27 99bc b1a2 04d5
00000080: f1bd 9bdc 26c0 b4de 08b8 b9a9 c30c d93f
00000090: cab6 1938 3999 31cb dcb3 314b ae18 0204
000000a0: c31a 4222 bc9b 2604 1c16 93d4 b2b8 3f26
000000b0: f7d7 fc2f 2717 1fbd c037 ffb5 49b0 d908
000000c0: 31fc 3621 e9b7 18fe d3c4 2610 d59d 96cf
000000d0: 2bb6 5104 eaf6 1ee8 12e1 10ab 22a5 3d3f
000000e0: e6f8 e8fd c881 070b d5bc da41 cfa2 e7a2
000000f0: bf3d 24c4 c8bc 8b21 4e46 dd0b 59cc dfe4
19 -51 18 37 -77 2 -69 35
-37 -91 -25 -15 -48 -14 -104 50
-86 20 33 -119 -45 -1 61 -29
-81 1 -62 -27 57 12 35 -51
21 -56 77 59 -1 -107 55 -50
-34 -70 6 46 6 -87 -86 -13
38 -54 60 41 43 -38 6 -89
-12 8 -21 19 -42 -58 -54 -88
-21 27 -104 41 -20 22 31 -18
21 -50 38 39 -20 -44 -115 -12
1 15 46 -25 -60 31 46 24
-51 38 -20 -85 -30 -23 47 -85
46 -33 75 -90 -86 -93 -62 4
65 28 -61 46 -43 -59 -43 -21
15 66 -61 44 68 15 52 -46
61 39 -103 -68 -79 -94 4 -43
-15 -67 -101 -36 38 -64 -76 -34
8 -72 -71 -87 -61 12 -39 63
-54 -74 25 56 57 -103 49 -53
-36 -77 49 75 -82 24 2 4
-61 26 66 34 -68 -101 38 4
28 22 -109 -44 -78 -72 63 38
-9 -41 -4 47 39 23 31 -67
-64 55 -1 -75 73 -80 -39 8
49 -4 54 33 -23 -73 24 -2
-45 -60 38 16 -43 -99 -106 -49
43 -74 81 4 -22 -10 30 -24
18 -31 16 -85 34 -91 61 63
-26 -8 -24 -3 -56 -127 7 11
-43 -68 -38 65 -49 -94 -25 -94
-65 61 36 -60 -56 -68 -117 33
78 70 -35 11 89 -52 -33 -28

sequential/conv2d_5/Conv2D i1 [64, 3, 3, 64]
00000000: ea4e cd05 1e07 600b 19e8 dbda 0bef f102
00000010: efd1 eff4 1129 e4df 2e11 06fb be36 eb1e
00000020: f0d4 a8bd 40f0 fadc efbc 1628 f4ee 10f3
00000030: 081c 22dd 0ef3 1926 27f7 3cf2 0122 00fc
00000040: 0210 0449 eafc 2704 c354 e91f f5c5 0804
00000050: 0be4 f02e dde1 dde2 f5f7 e501 a1fb fe5d
00000060: 1212 fa1d 6ade 09d8 0ecc 22f3 080b 1a19
00000070: 00d5 f4c0 0afc cb09 c9d5 d8f4 c8ea c807
00000080: f90a d62c 161f 07b9 f50a e01b f8f1 dafd
00000090: f5ea f815 b9ee 11e9 04e3 1b12 03dd f014
000000a0: 0bed f90f 4bdd 30ea 1c00 f40b 1608 fa07
000000b0: f10b 1425 33f8 ebb4 ebc9 2410 46f4 c6f9
000000c0: fd44 d6db d0f5 1718 1a0c 3ecb 0925 d2ec
000000d0: f5b6 1af2 eeec 27f2 f1fb 490e b6fa f00e
000000e0: 01fe acd6 fd02 d5cd 11f7 f3fd fade 0d18
000000f0: fbe2 f3d9 1213 fa34 0f15 2d14 c632 f1ec
-22 78 -51 5 30 7 96 11
25 -24 -37 -38 11 -17 -15 2
-17 -47 -17 -12 17 41 -28 -33
46 17 6 -5 -66 54 -21 30
-16 -44 -88 -67 64 -16 -6 -36
-17 -68 22 40 -12 -18 16 -13
8 28 34 -35 14 -13 25 38
39 -9 60 -14 1 34 0 -4
2 16 4 73 -22 -4 39 4
-61 84 -23 31 -11 -59 8 4
11 -28 -16 46 -35 -31 -35 -30
-11 -9 -27 1 -95 -5 -2 93
18 18 -6 29 106 -34 9 -40
14 -52 34 -13 8 11 26 25
0 -43 -12 -64 10 -4 -53 9
-55 -43 -40 -12 -56 -22 -56 7
-7 10 -42 44 22 31 7 -71
-11 10 -32 27 -8 -15 -38 -3
-11 -22 -8 21 -71 -18 17 -23
4 -29 27 18 3 -35 -16 20
11 -19 -7 15 75 -35 48 -22
28 0 -12 11 22 8 -6 7
-15 11 20 37 51 -8 -21 -76
-21 -55 36 16 70 -12 -58 -7
-3 68 -42 -37 -48 -11 23 24
26 12 62 -53 9 37 -46 -20
-11 -74 26 -14 -18 -20 39 -14
-15 -5 73 14 -74 -6 -16 14
1 -2 -84 -42 -3 2 -43 -51
17 -9 -13 -3 -6 -34 13 24
-5 -30 -13 -39 18 19 -6 52
15 21 45 20 -58 50 -15 -20

sequential/dense/MatMul i1 [64, 256] scale=0.0032083665 zero_point=0
00000000: 02da 0a01 f1ed 09eb 01ff fceb 0c13 12da
00000010: f51e f4f8 02fb 0ff5 04e0 ddd6 f415 14f6
00000020: 2cc2 23e4 c9e2 14c5 1010 ebdb faf1 1529
00000030: 09fc 1c03 f8ea e6ee 0327 ee05 04f9 2b2d
00000040: fbd2 f5e9 24d6 dce7 1f1a e2dc cb29 09fc
00000050: da12 f1e4 dbd7 e9f1 fd13 12cb e9eb 19d2
00000060: e616 dc18 fa05 e119 e7f0 0dda ffe9 052a
00000070: 1d23 e3eb 1224 dde9 ef20 e80f dd15 0f1e
00000080: dad0 fedd 2bf3 dbfa e7fc e0e5 1327 0ce4
00000090: e8c3 34e8 defb d9da 0eeb 0012 0fee 03f6
000000a0: ff07 db15 d318 f4ef 0d09 ebe8 2b0a c6ec
000000b0: d703 d9b7 2a20 1fe8 efd6 dc02 fbd6 01e9
000000c0: 2716 10e3 daca d71f f2e6 e3e5 1025 df05
000000d0: 0add 0105 1d21 f0f5 ebf8 e110 e70e 19db
000000e0: 1b26 f2fd cd05 1f13 1e08 ece5 fc0a 01d7
000000f0: 02ec 12ff 1324 26f0 f9f8 01ff ebc9 dae7
0.006416733 -0.121917926 0.032083664 0.0032083665 -0.048125498 -0.060958963 0.028875299 -0.0673757
0.0032083665 -0.0032083665 -0.012833466 -0.0673757 0.0385004 0.060958963 0.057750598 -0.121917926
-0.03529203 0.096250996 -0.0385004 -0.025666932 0.006416733 -0.016041832 0.048125498 -0.03529203
0.012833466 -0.10266773 -0.112292826 -0.1347514 -0.0385004 0.0673757 0.06416733 -0.032083664
0.14116812 -0.19891872 0.112292826 -0.08983426 -0.17646016 -0.096250996 0.06416733 -0.18929362
0.051333863 0.051333863 -0.0673757 -0.11870956 -0.0192502 -0.048125498 0.0673757 0.13154303
0.028875299 -0.012833466 0.08983426 0.0096251 -0.025666932 -0.07058406 -0.08341753 -0.057750598
0.0096251 0.12512629 -0.057750598 0.016041832 0.012833466 -0.022458564 0.13795976 0.14437649
-0.016041832 -0.14758486 -0.03529203 -0.07379243 0.115501195 -0.1347514 -0.115501195 -0.08020916
0.09945936 0.08341753 -0.096250996 -0.115501195 -0.17004342 0.13154303 0.028875299 -0.012833466
-0.121917926 0.057750598 -0.048125498 -0.08983426 -0.11870956 -0.13154303 -0.07379243 -0.048125498
-0.0096251 0.060958963 0.057750598 -0.17004342 -0.07379243 -0.0673757 0.08020916 -0.14758486
-0.08341753 0.07058406 -0.115501195 0.0770008 -0.0192502 0.016041832 -0.09945936 0.08020916
-0.08020916 -0.051333863 0.041708764 -0.121917926 -0.0032083665 -0.07379243 0.016041832 0.1347514
0.09304263 0.112292826 -0.09304263 -0.0673757 0.057750598 0.115501195 -0.112292826 -0.07379243
-0.05454223 0.10266773 -0.0770008 0.048125498 -0.112292826 0.0673757 0.048125498 0.096250996
-0.121917926 -0.1540016 -0.006416733 -0.112292826 0.13795976 -0.041708764 -0.11870956 -0.0192502
-0.08020916 -0.012833466 -0.10266773 -0.0866259 0.060958963 0.12512629 0.0385004 -0.08983426
-0.0770008 -0.19571036 0.16683505 -0.0770008 -0.10908446 -0.016041832 -0.12512629 -0.121917926
0.04491713 -0.0673757 0.0 0.057750598 0.048125498 -0.057750598 0.0096251 -0.032083664
-0.0032083665 0.022458564 -0.11870956 0.0673757 -0.14437649 0.0770008 -0.0385004 -0.05454223
0.041708764 0.028875299 -0.0673757 -0.0770008 0.13795976 0.032083664 -0.18608525 -0.06416733
-0.13154303 0.0096251 -0.12512629 -0.23421074 0.1347514 0.10266773 0.09945936 -0.0770008
-0.05454223 -0.1347514 -0.115501195 0.006416733 -0.016041832 -0.1347514 0.0032083665 -0.07379243
0.12512629 0.07058406 0.051333863 -0.09304263 -0.121917926 -0.1732518 -0.13154303 0.09945936
-0.04491713 -0.08341753 -0.09304263 -0.0866259 0.051333863 0.11870956 -0.105876096 0.016041832
0.032083664 -0.112292826 0.0032083665 0.016041832 0.09304263 0.105876096 -0.051333863 -0.03529203
-0.0673757 -0.025666932 -0.09945936 0.051333863 -0.08020916 0.04491713 0.08020916 -0.11870956
0.0866259 0.121917926 -0.04491713 -0.0096251 -0.16362669 0.016041832 0.09945936 0.060958963
0.096250996 0.025666932 -0.06416733 -0.0866259 -0.012833466 0.032083664 0.0032083665 -0.13154303
0.006416733 -0.06416733 0.057750598 -0.0032083665 0.060958963 0.115501195 0.121917926 -0.051333863
-0.022458564 -0.025666932 0.0032083665 -0.0032083665 -0.0673757 -0.17646016 -0.121917926 -0.08020916
